jim_dejito@LAPTOP-UOBBLVQP:~$ source ~/scanom-ml-env/bin/activate
(scanom-ml-env) jim_dejito@LAPTOP-UOBBLVQP:~$ python3 "/mnt/c/Users/Jim Dejito/OneDrive/Desktop/Jim Codes/Thesis/Scanom/ml/train.py"
WARNING: All log messages before absl::InitializeLog() is called are written to STDERR
I0000 00:00:1775790844.717068     410 port.cc:153] oneDNN custom operations are on. You may see slightly different numerical results due to floating-point round-off errors from different computation orders. To turn them off, set the environment variable `TF_ENABLE_ONEDNN_OPTS=0`.
I0000 00:00:1775790845.428270     410 cpu_feature_guard.cc:227] This TensorFlow binary is optimized to use available CPU instructions in performance-critical operations.
To enable the following instructions: AVX2 AVX_VNNI FMA, in other operations, rebuild TensorFlow with the appropriate compiler flags.
WARNING: All log messages before absl::InitializeLog() is called are written to STDERR
I0000 00:00:1775790848.303129     410 port.cc:153] oneDNN custom operations are on. You may see slightly different numerical results due to floating-point round-off errors from different computation orders. To turn them off, set the environment variable `TF_ENABLE_ONEDNN_OPTS=0`.
Mixed precision enabled: float16 activations, float32 weights
I0000 00:00:1775790851.518641     410 gpu_device.cc:2043] Created device /job:localhost/replica:0/task:0/device:GPU:0 with 5561 MB memory:  -> device: 0, name: NVIDIAGeForce RTX 4060 Laptop GPU, pci bus id: 0000:01:00.0, compute capability: 8.9
Found 16815 files belonging to 10 classes.
Found 3598 files belonging to 10 classes.
Found 3613 files belonging to 10 classes.
Classes (10): ['banana_cordana', 'banana_healthy', 'banana_panama_wilt', 'banana_sigatoka', 'tomato_bacterial_spot', 'tomato_early_blight', 'tomato_healthy', 'tomato_late_blight', 'tomato_leaf_mold', 'tomato_powdery_mildew']

Class weights applied (capped at 3.0):
  [0] banana_cordana                     : 2.3419
  [1] banana_healthy                     : 1.6060
  [2] banana_panama_wilt                 : 3.0000
  [3] banana_sigatoka                    : 1.2265
  [4] tomato_bacterial_spot              : 0.6753
  [5] tomato_early_blight                : 0.7763
  [6] tomato_healthy                     : 0.6230
  [7] tomato_late_blight                 : 0.6153
  [8] tomato_leaf_mold                   : 0.6877
  [9] tomato_powdery_mildew              : 1.9130
E0000 00:00:1775790853.301249     410 util.cc:131] oneDNN supports DT_HALF only on platforms with AVX-512. Falling back to the default Eigen-based implementation if present.

=== PHASE 1: Training classification head ===
Epoch 1/20
I0000 00:00:1775790861.380980     478 service.cc:153] XLA service 0x73e29c073650 initialized for platform CUDA (this does not guarantee that XLA will be used). Devices:
I0000 00:00:1775790861.381015     478 service.cc:161]   StreamExecutor [0]: NVIDIA GeForce RTX 4060 Laptop GPU, Compute Capability 8.9 (Driver: 13.0.0; Runtime: 12.9.0; Toolkit: 12.5.0; DNN: 9.20.0)
I0000 00:00:1775790861.849420     478 dump_mlir_util.cc:269] disabling MLIR crash reproducer, set env var `MLIR_CRASH_REPRODUCER_DIRECTORY` to enable.
I0000 00:00:1775790863.150374     478 cuda_dnn.cc:461] Loaded cuDNN version 92000
I0000 00:00:1775790863.605292     478 dot_merger.cc:481] Merging Dots in computation: a_inference_one_step_on_data_21098__.288
I0000 00:00:1775790882.395869     478 device_compiler.h:208] Compiled cluster using XLA!  This line is logged at most once for the lifetime of the process.
1048/1051 ━━━━━━━━━━━━━━━━━━━━ 0s 16ms/step - accuracy: 0.5820 - loss: 1.4356I0000 00:00:1775790902.131733     476 dot_merger.cc:481] Merging Dots in computation: a_inference_one_step_on_data_21098__.288
1051/1051 ━━━━━━━━━━━━━━━━━━━━ 0s 33ms/step - accuracy: 0.5823 - loss: 1.4348
Epoch 1: val_accuracy improved from None to 0.86215, saving model to /mnt/c/Users/Jim Dejito/OneDrive/Desktop/Jim Codes/Thesis/Scanom/model_output/best_model.keras

Epoch 1: finished saving model to /mnt/c/Users/Jim Dejito/OneDrive/Desktop/Jim Codes/Thesis/Scanom/model_output/best_model.keras
1051/1051 ━━━━━━━━━━━━━━━━━━━━ 84s 52ms/step - accuracy: 0.6736 - loss: 1.1788 - val_accuracy: 0.8621 - val_loss: 0.8821 - learning_rate: 0.0010
Epoch 2/20
1051/1051 ━━━━━━━━━━━━━━━━━━━━ 0s 18ms/step - accuracy: 0.7668 - loss: 0.9568
Epoch 2: val_accuracy improved from 0.86215 to 0.87410, saving model to /mnt/c/Users/Jim Dejito/OneDrive/Desktop/Jim Codes/Thesis/Scanom/model_output/best_model.keras

Epoch 2: finished saving model to /mnt/c/Users/Jim Dejito/OneDrive/Desktop/Jim Codes/Thesis/Scanom/model_output/best_model.keras
1051/1051 ━━━━━━━━━━━━━━━━━━━━ 21s 20ms/step - accuracy: 0.7763 - loss: 0.9388 - val_accuracy: 0.8741 - val_loss: 0.8409 - learning_rate: 0.0010
Epoch 3/20
1049/1051 ━━━━━━━━━━━━━━━━━━━━ 0s 19ms/step - accuracy: 0.7886 - loss: 0.9037
Epoch 3: val_accuracy improved from 0.87410 to 0.88716, saving model to /mnt/c/Users/Jim Dejito/OneDrive/Desktop/Jim Codes/Thesis/Scanom/model_output/best_model.keras

Epoch 3: finished saving model to /mnt/c/Users/Jim Dejito/OneDrive/Desktop/Jim Codes/Thesis/Scanom/model_output/best_model.keras
1051/1051 ━━━━━━━━━━━━━━━━━━━━ 23s 21ms/step - accuracy: 0.7973 - loss: 0.8929 - val_accuracy: 0.8872 - val_loss: 0.8073 - learning_rate: 0.0010
Epoch 4/20
1049/1051 ━━━━━━━━━━━━━━━━━━━━ 0s 18ms/step - accuracy: 0.8018 - loss: 0.8784
Epoch 4: val_accuracy improved from 0.88716 to 0.89550, saving model to /mnt/c/Users/Jim Dejito/OneDrive/Desktop/Jim Codes/Thesis/Scanom/model_output/best_model.keras

Epoch 4: finished saving model to /mnt/c/Users/Jim Dejito/OneDrive/Desktop/Jim Codes/Thesis/Scanom/model_output/best_model.keras
1051/1051 ━━━━━━━━━━━━━━━━━━━━ 39s 20ms/step - accuracy: 0.8064 - loss: 0.8716 - val_accuracy: 0.8955 - val_loss: 0.7952 - learning_rate: 0.0010
Epoch 5/20
1050/1051 ━━━━━━━━━━━━━━━━━━━━ 0s 19ms/step - accuracy: 0.8209 - loss: 0.8489
Epoch 5: val_accuracy did not improve from 0.89550
1051/1051 ━━━━━━━━━━━━━━━━━━━━ 22s 21ms/step - accuracy: 0.8230 - loss: 0.8452 - val_accuracy: 0.8919 - val_loss: 0.8032 - learning_rate: 0.0010
Epoch 6/20
1048/1051 ━━━━━━━━━━━━━━━━━━━━ 0s 20ms/step - accuracy: 0.8272 - loss: 0.8429
Epoch 6: val_accuracy improved from 0.89550 to 0.90550, saving model to /mnt/c/Users/Jim Dejito/OneDrive/Desktop/Jim Codes/Thesis/Scanom/model_output/best_model.keras

Epoch 6: finished saving model to /mnt/c/Users/Jim Dejito/OneDrive/Desktop/Jim Codes/Thesis/Scanom/model_output/best_model.keras
1051/1051 ━━━━━━━━━━━━━━━━━━━━ 24s 23ms/step - accuracy: 0.8257 - loss: 0.8438 - val_accuracy: 0.9055 - val_loss: 0.7819 - learning_rate: 0.0010
Epoch 7/20
1050/1051 ━━━━━━━━━━━━━━━━━━━━ 0s 19ms/step - accuracy: 0.8286 - loss: 0.8280
Epoch 7: val_accuracy did not improve from 0.90550
1051/1051 ━━━━━━━━━━━━━━━━━━━━ 23s 22ms/step - accuracy: 0.8300 - loss: 0.8295 - val_accuracy: 0.9033 - val_loss: 0.7869 - learning_rate: 0.0010
Epoch 8/20
1046/1051 ━━━━━━━━━━━━━━━━━━━━ 0s 21ms/step - accuracy: 0.8354 - loss: 0.8221
Epoch 8: val_accuracy did not improve from 0.90550
1051/1051 ━━━━━━━━━━━━━━━━━━━━ 24s 23ms/step - accuracy: 0.8354 - loss: 0.8244 - val_accuracy: 0.9011 - val_loss: 0.7761 - learning_rate: 0.0010
Epoch 9/20
1050/1051 ━━━━━━━━━━━━━━━━━━━━ 0s 20ms/step - accuracy: 0.8407 - loss: 0.8183
Epoch 9: val_accuracy did not improve from 0.90550
1051/1051 ━━━━━━━━━━━━━━━━━━━━ 23s 22ms/step - accuracy: 0.8393 - loss: 0.8177 - val_accuracy: 0.9044 - val_loss: 0.7795 - learning_rate: 0.0010
Epoch 10/20
1047/1051 ━━━━━━━━━━━━━━━━━━━━ 0s 19ms/step - accuracy: 0.8404 - loss: 0.8124
Epoch 10: val_accuracy improved from 0.90550 to 0.91329, saving model to /mnt/c/Users/Jim Dejito/OneDrive/Desktop/Jim Codes/Thesis/Scanom/model_output/best_model.keras

Epoch 10: finished saving model to /mnt/c/Users/Jim Dejito/OneDrive/Desktop/Jim Codes/Thesis/Scanom/model_output/best_model.keras
1051/1051 ━━━━━━━━━━━━━━━━━━━━ 23s 22ms/step - accuracy: 0.8425 - loss: 0.8120 - val_accuracy: 0.9133 - val_loss: 0.7622 - learning_rate: 0.0010
Epoch 11/20
1048/1051 ━━━━━━━━━━━━━━━━━━━━ 0s 19ms/step - accuracy: 0.8455 - loss: 0.8066
Epoch 11: val_accuracy did not improve from 0.91329
1051/1051 ━━━━━━━━━━━━━━━━━━━━ 39s 21ms/step - accuracy: 0.8457 - loss: 0.8053 - val_accuracy: 0.9049 - val_loss: 0.7695 - learning_rate: 0.0010
Epoch 12/20
1048/1051 ━━━━━━━━━━━━━━━━━━━━ 0s 20ms/step - accuracy: 0.8551 - loss: 0.7886
Epoch 12: val_accuracy improved from 0.91329 to 0.92051, saving model to /mnt/c/Users/Jim Dejito/OneDrive/Desktop/Jim Codes/Thesis/Scanom/model_output/best_model.keras

Epoch 12: finished saving model to /mnt/c/Users/Jim Dejito/OneDrive/Desktop/Jim Codes/Thesis/Scanom/model_output/best_model.keras
1051/1051 ━━━━━━━━━━━━━━━━━━━━ 24s 23ms/step - accuracy: 0.8541 - loss: 0.7921 - val_accuracy: 0.9205 - val_loss: 0.7519 - learning_rate: 0.0010
Epoch 13/20
1048/1051 ━━━━━━━━━━━━━━━━━━━━ 0s 22ms/step - accuracy: 0.8545 - loss: 0.7964
Epoch 13: val_accuracy did not improve from 0.92051
1051/1051 ━━━━━━━━━━━━━━━━━━━━ 25s 24ms/step - accuracy: 0.8558 - loss: 0.7942 - val_accuracy: 0.9163 - val_loss: 0.7586 - learning_rate: 0.0010
Epoch 14/20
1008/1051 ━━━━━━━━━━━━━━━━━━━━ 0s 22ms/step - accuracy: 0.8605 - loss: 0.7830
Epoch 14: val_accuracy did not improve from 0.92051
1051/1051 ━━━━━━━━━━━━━━━━━━━━ 24s 22ms/step - accuracy: 0.8585 - loss: 0.7853 - val_accuracy: 0.9197 - val_loss: 0.7452 - learning_rate: 0.0010
Epoch 15/20
1046/1051 ━━━━━━━━━━━━━━━━━━━━ 0s 22ms/step - accuracy: 0.8578 - loss: 0.7844
Epoch 15: val_accuracy improved from 0.92051 to 0.92524, saving model to /mnt/c/Users/Jim Dejito/OneDrive/Desktop/Jim Codes/Thesis/Scanom/model_output/best_model.keras

Epoch 15: finished saving model to /mnt/c/Users/Jim Dejito/OneDrive/Desktop/Jim Codes/Thesis/Scanom/model_output/best_model.keras
1051/1051 ━━━━━━━━━━━━━━━━━━━━ 27s 25ms/step - accuracy: 0.8601 - loss: 0.7838 - val_accuracy: 0.9252 - val_loss: 0.7403 - learning_rate: 0.0010
Epoch 16/20
1045/1051 ━━━━━━━━━━━━━━━━━━━━ 0s 21ms/step - accuracy: 0.8597 - loss: 0.7800
Epoch 16: val_accuracy did not improve from 0.92524
1051/1051 ━━━━━━━━━━━━━━━━━━━━ 25s 23ms/step - accuracy: 0.8602 - loss: 0.7811 - val_accuracy: 0.9219 - val_loss: 0.7430 - learning_rate: 0.0010
Epoch 17/20
1051/1051 ━━━━━━━━━━━━━━━━━━━━ 0s 20ms/step - accuracy: 0.8670 - loss: 0.7709
Epoch 17: val_accuracy did not improve from 0.92524
1051/1051 ━━━━━━━━━━━━━━━━━━━━ 24s 23ms/step - accuracy: 0.8634 - loss: 0.7759 - val_accuracy: 0.9225 - val_loss: 0.7416 - learning_rate: 0.0010
Epoch 18/20
1046/1051 ━━━━━━━━━━━━━━━━━━━━ 0s 20ms/step - accuracy: 0.8590 - loss: 0.7777
Epoch 18: val_accuracy did not improve from 0.92524
1051/1051 ━━━━━━━━━━━━━━━━━━━━ 24s 22ms/step - accuracy: 0.8604 - loss: 0.7797 - val_accuracy: 0.9247 - val_loss: 0.7419 - learning_rate: 0.0010
Epoch 19/20
1051/1051 ━━━━━━━━━━━━━━━━━━━━ 0s 21ms/step - accuracy: 0.8715 - loss: 0.7667
Epoch 19: val_accuracy did not improve from 0.92524
1051/1051 ━━━━━━━━━━━━━━━━━━━━ 24s 23ms/step - accuracy: 0.8692 - loss: 0.7724 - val_accuracy: 0.9241 - val_loss: 0.7386 - learning_rate: 0.0010
Epoch 20/20
1049/1051 ━━━━━━━━━━━━━━━━━━━━ 0s 21ms/step - accuracy: 0.8619 - loss: 0.7694
Epoch 20: val_accuracy did not improve from 0.92524
1051/1051 ━━━━━━━━━━━━━━━━━━━━ 24s 23ms/step - accuracy: 0.8671 - loss: 0.7691 - val_accuracy: 0.9200 - val_loss: 0.7386 - learning_rate: 0.0010
Restoring model weights from the end of the best epoch: 15.

=== PHASE 2: Fine-tuning deeper EfficientNetV2B0 layers ===
  Fine-tuning last 108 of 270 base layers
Epoch 1/60
I0000 00:00:1775791440.490295     475 dot_merger.cc:481] Merging Dots in computation: a_inference_one_step_on_data_176429__.470
1037/1051 ━━━━━━━━━━━━━━━━━━━━ 0s 23ms/step - accuracy: 0.7832 - loss: 0.9379I0000 00:00:1775791494.537310     475 dot_merger.cc:481] Merging Dots in computation: a_inference_one_step_on_data_176429__.470
1051/1051 ━━━━━━━━━━━━━━━━━━━━ 0s 47ms/step - accuracy: 0.7839 - loss: 0.9367
Epoch 1: val_accuracy improved from 0.92524 to 0.93024, saving model to /mnt/c/Users/Jim Dejito/OneDrive/Desktop/Jim Codes/Thesis/Scanom/model_output/best_model.keras

Epoch 1: finished saving model to /mnt/c/Users/Jim Dejito/OneDrive/Desktop/Jim Codes/Thesis/Scanom/model_output/best_model.keras
1051/1051 ━━━━━━━━━━━━━━━━━━━━ 122s 72ms/step - accuracy: 0.8322 - loss: 0.8466 - val_accuracy: 0.9302 - val_loss: 0.7614 - learning_rate: 1.0000e-04
Epoch 2/60
W0000 00:00:1775791543.592900    3154 prefetch_autotuner.cc:55] Prefetch autotuner tried to allocate 4817728 bytes after encountering the first element of size 4817728 bytes.This already causes the autotune ram budget to be exceeded. To stay within the ram budget, either increase the ram budget or reduce element size
1051/1051 ━━━━━━━━━━━━━━━━━━━━ 0s 113ms/step - accuracy: 0.8909 - loss: 0.7424
Epoch 2: val_accuracy improved from 0.93024 to 0.95275, saving model to /mnt/c/Users/Jim Dejito/OneDrive/Desktop/Jim Codes/Thesis/Scanom/model_output/best_model.keras

Epoch 2: finished saving model to /mnt/c/Users/Jim Dejito/OneDrive/Desktop/Jim Codes/Thesis/Scanom/model_output/best_model.keras
1051/1051 ━━━━━━━━━━━━━━━━━━━━ 125s 119ms/step - accuracy: 0.9007 - loss: 0.7264 - val_accuracy: 0.9528 - val_loss: 0.7009 - learning_rate: 1.0000e-04
Epoch 3/60
W0000 00:00:1775791668.794438    3154 prefetch_autotuner.cc:55] Prefetch autotuner tried to allocate 4817728 bytes after encountering the first element of size 4817728 bytes.This already causes the autotune ram budget to be exceeded. To stay within the ram budget, either increase the ram budget or reduce element size
1051/1051 ━━━━━━━━━━━━━━━━━━━━ 0s 116ms/step - accuracy: 0.9223 - loss: 0.6872
Epoch 3: val_accuracy improved from 0.95275 to 0.96498, saving model to /mnt/c/Users/Jim Dejito/OneDrive/Desktop/Jim Codes/Thesis/Scanom/model_output/best_model.keras

Epoch 3: finished saving model to /mnt/c/Users/Jim Dejito/OneDrive/Desktop/Jim Codes/Thesis/Scanom/model_output/best_model.keras
1051/1051 ━━━━━━━━━━━━━━━━━━━━ 126s 120ms/step - accuracy: 0.9245 - loss: 0.6827 - val_accuracy: 0.9650 - val_loss: 0.6843 - learning_rate: 1.0000e-04
Epoch 4/60
W0000 00:00:1775791795.025165    3154 prefetch_autotuner.cc:55] Prefetch autotuner tried to allocate 4817728 bytes after encountering the first element of size 4817728 bytes.This already causes the autotune ram budget to be exceeded. To stay within the ram budget, either increase the ram budget or reduce element size
1051/1051 ━━━━━━━━━━━━━━━━━━━━ 0s 114ms/step - accuracy: 0.9395 - loss: 0.6563
Epoch 4: val_accuracy improved from 0.96498 to 0.96776, saving model to /mnt/c/Users/Jim Dejito/OneDrive/Desktop/Jim Codes/Thesis/Scanom/model_output/best_model.keras

Epoch 4: finished saving model to /mnt/c/Users/Jim Dejito/OneDrive/Desktop/Jim Codes/Thesis/Scanom/model_output/best_model.keras
1051/1051 ━━━━━━━━━━━━━━━━━━━━ 125s 118ms/step - accuracy: 0.9404 - loss: 0.6517 - val_accuracy: 0.9678 - val_loss: 0.6721 - learning_rate: 1.0000e-04
Epoch 5/60
1051/1051 ━━━━━━━━━━━━━━━━━━━━ 0s 116ms/step - accuracy: 0.9494 - loss: 0.6323
Epoch 5: val_accuracy improved from 0.96776 to 0.97221, saving model to /mnt/c/Users/Jim Dejito/OneDrive/Desktop/Jim Codes/Thesis/Scanom/model_output/best_model.keras

Epoch 5: finished saving model to /mnt/c/Users/Jim Dejito/OneDrive/Desktop/Jim Codes/Thesis/Scanom/model_output/best_model.keras
1051/1051 ━━━━━━━━━━━━━━━━━━━━ 126s 120ms/step - accuracy: 0.9508 - loss: 0.6317 - val_accuracy: 0.9722 - val_loss: 0.6462 - learning_rate: 1.0000e-04
Epoch 6/60
W0000 00:00:1775792046.069475    3154 prefetch_autotuner.cc:55] Prefetch autotuner tried to allocate 4817728 bytes after encountering the first element of size 4817728 bytes.This already causes the autotune ram budget to be exceeded. To stay within the ram budget, either increase the ram budget or reduce element size
1051/1051 ━━━━━━━━━━━━━━━━━━━━ 0s 114ms/step - accuracy: 0.9561 - loss: 0.6228
Epoch 6: val_accuracy improved from 0.97221 to 0.97777, saving model to /mnt/c/Users/Jim Dejito/OneDrive/Desktop/Jim Codes/Thesis/Scanom/model_output/best_model.keras

Epoch 6: finished saving model to /mnt/c/Users/Jim Dejito/OneDrive/Desktop/Jim Codes/Thesis/Scanom/model_output/best_model.keras
1051/1051 ━━━━━━━━━━━━━━━━━━━━ 126s 119ms/step - accuracy: 0.9587 - loss: 0.6178 - val_accuracy: 0.9778 - val_loss: 0.6332 - learning_rate: 1.0000e-04
Epoch 7/60
1051/1051 ━━━━━━━━━━━━━━━━━━━━ 0s 114ms/step - accuracy: 0.9676 - loss: 0.6016
Epoch 7: val_accuracy improved from 0.97777 to 0.97832, saving model to /mnt/c/Users/Jim Dejito/OneDrive/Desktop/Jim Codes/Thesis/Scanom/model_output/best_model.keras

Epoch 7: finished saving model to /mnt/c/Users/Jim Dejito/OneDrive/Desktop/Jim Codes/Thesis/Scanom/model_output/best_model.keras
1051/1051 ━━━━━━━━━━━━━━━━━━━━ 124s 118ms/step - accuracy: 0.9636 - loss: 0.6050 - val_accuracy: 0.9783 - val_loss: 0.6130 - learning_rate: 1.0000e-04
Epoch 8/60
1050/1051 ━━━━━━━━━━━━━━━━━━━━ 0s 56ms/step - accuracy: 0.9701 - loss: 0.5913
Epoch 8: val_accuracy improved from 0.97832 to 0.97943, saving model to /mnt/c/Users/Jim Dejito/OneDrive/Desktop/Jim Codes/Thesis/Scanom/model_output/best_model.keras

Epoch 8: finished saving model to /mnt/c/Users/Jim Dejito/OneDrive/Desktop/Jim Codes/Thesis/Scanom/model_output/best_model.keras
1051/1051 ━━━━━━━━━━━━━━━━━━━━ 64s 60ms/step - accuracy: 0.9710 - loss: 0.5899 - val_accuracy: 0.9794 - val_loss: 0.6107 - learning_rate: 1.0000e-04
Epoch 9/60
1050/1051 ━━━━━━━━━━━━━━━━━━━━ 0s 57ms/step - accuracy: 0.9736 - loss: 0.5804
Epoch 9: val_accuracy did not improve from 0.97943
1051/1051 ━━━━━━━━━━━━━━━━━━━━ 63s 59ms/step - accuracy: 0.9731 - loss: 0.5783 - val_accuracy: 0.9792 - val_loss: 0.5985 - learning_rate: 1.0000e-04
Epoch 10/60
W0000 00:00:1775792440.230335    3154 prefetch_autotuner.cc:55] Prefetch autotuner tried to allocate 4817728 bytes after encountering the first element of size 4817728 bytes.This already causes the autotune ram budget to be exceeded. To stay within the ram budget, either increase the ram budget or reduce element size
1051/1051 ━━━━━━━━━━━━━━━━━━━━ 0s 114ms/step - accuracy: 0.9747 - loss: 0.5762
Epoch 10: val_accuracy improved from 0.97943 to 0.98082, saving model to /mnt/c/Users/Jim Dejito/OneDrive/Desktop/Jim Codes/Thesis/Scanom/model_output/best_model.keras

Epoch 10: finished saving model to /mnt/c/Users/Jim Dejito/OneDrive/Desktop/Jim Codes/Thesis/Scanom/model_output/best_model.keras
1051/1051 ━━━━━━━━━━━━━━━━━━━━ 142s 118ms/step - accuracy: 0.9753 - loss: 0.5741 - val_accuracy: 0.9808 - val_loss: 0.5927 - learning_rate: 1.0000e-04
Epoch 11/60
1051/1051 ━━━━━━━━━━━━━━━━━━━━ 0s 56ms/step - accuracy: 0.9778 - loss: 0.5689
Epoch 11: val_accuracy improved from 0.98082 to 0.98249, saving model to /mnt/c/Users/Jim Dejito/OneDrive/Desktop/Jim Codes/Thesis/Scanom/model_output/best_model.keras

Epoch 11: finished saving model to /mnt/c/Users/Jim Dejito/OneDrive/Desktop/Jim Codes/Thesis/Scanom/model_output/best_model.keras
1051/1051 ━━━━━━━━━━━━━━━━━━━━ 64s 60ms/step - accuracy: 0.9777 - loss: 0.5678 - val_accuracy: 0.9825 - val_loss: 0.5803 - learning_rate: 1.0000e-04
Epoch 12/60
1051/1051 ━━━━━━━━━━━━━━━━━━━━ 0s 116ms/step - accuracy: 0.9813 - loss: 0.5595
Epoch 12: val_accuracy improved from 0.98249 to 0.98555, saving model to /mnt/c/Users/Jim Dejito/OneDrive/Desktop/Jim Codes/Thesis/Scanom/model_output/best_model.keras

Epoch 12: finished saving model to /mnt/c/Users/Jim Dejito/OneDrive/Desktop/Jim Codes/Thesis/Scanom/model_output/best_model.keras
1051/1051 ━━━━━━━━━━━━━━━━━━━━ 126s 119ms/step - accuracy: 0.9807 - loss: 0.5589 - val_accuracy: 0.9855 - val_loss: 0.5710 - learning_rate: 1.0000e-04
Epoch 13/60
1051/1051 ━━━━━━━━━━━━━━━━━━━━ 0s 114ms/step - accuracy: 0.9829 - loss: 0.5522
Epoch 13: val_accuracy did not improve from 0.98555
1051/1051 ━━━━━━━━━━━━━━━━━━━━ 122s 116ms/step - accuracy: 0.9819 - loss: 0.5559 - val_accuracy: 0.9836 - val_loss: 0.5787 - learning_rate: 1.0000e-04
Epoch 14/60
W0000 00:00:1775792875.972326    3154 prefetch_autotuner.cc:55] Prefetch autotuner tried to allocate 4817728 bytes after encountering the first element of size 4817728 bytes.This already causes the autotune ram budget to be exceeded. To stay within the ram budget, either increase the ram budget or reduce element size
1051/1051 ━━━━━━━━━━━━━━━━━━━━ 0s 115ms/step - accuracy: 0.9838 - loss: 0.5494
Epoch 14: val_accuracy did not improve from 0.98555
1051/1051 ━━━━━━━━━━━━━━━━━━━━ 124s 117ms/step - accuracy: 0.9833 - loss: 0.5509 - val_accuracy: 0.9839 - val_loss: 0.5700 - learning_rate: 1.0000e-04
Epoch 15/60
W0000 00:00:1775792999.670460    4749 prefetch_autotuner.cc:55] Prefetch autotuner tried to allocate 4817664 bytes after encountering the first element of size 4817664 bytes.This already causes the autotune ram budget to be exceeded. To stay within the ram budget, either increase the ram budget or reduce element size
W0000 00:00:1775792999.678458    3154 prefetch_autotuner.cc:55] Prefetch autotuner tried to allocate 4817728 bytes after encountering the first element of size 4817728 bytes.This already causes the autotune ram budget to be exceeded. To stay within the ram budget, either increase the ram budget or reduce element size
1051/1051 ━━━━━━━━━━━━━━━━━━━━ 0s 113ms/step - accuracy: 0.9859 - loss: 0.5463
Epoch 15: val_accuracy did not improve from 0.98555
1051/1051 ━━━━━━━━━━━━━━━━━━━━ 122s 115ms/step - accuracy: 0.9845 - loss: 0.5473 - val_accuracy: 0.9844 - val_loss: 0.5656 - learning_rate: 1.0000e-04
Epoch 16/60
W0000 00:00:1775793121.223797    4826 prefetch_autotuner.cc:55] Prefetch autotuner tried to allocate 4817664 bytes after encountering the first element of size 4817664 bytes.This already causes the autotune ram budget to be exceeded. To stay within the ram budget, either increase the ram budget or reduce element size
W0000 00:00:1775793121.240312    3154 prefetch_autotuner.cc:55] Prefetch autotuner tried to allocate 4817728 bytes after encountering the first element of size 4817728 bytes.This already causes the autotune ram budget to be exceeded. To stay within the ram budget, either increase the ram budget or reduce element size
1048/1051 ━━━━━━━━━━━━━━━━━━━━ 0s 19ms/step - accuracy: 0.9863 - loss: 0.5408
Epoch 16: val_accuracy did not improve from 0.98555
1051/1051 ━━━━━━━━━━━━━━━━━━━━ 22s 21ms/step - accuracy: 0.9854 - loss: 0.5432 - val_accuracy: 0.9850 - val_loss: 0.5637 - learning_rate: 1.0000e-04
Epoch 17/60
1048/1051 ━━━━━━━━━━━━━━━━━━━━ 0s 27ms/step - accuracy: 0.9887 - loss: 0.5365
Epoch 17: val_accuracy improved from 0.98555 to 0.98610, saving model to /mnt/c/Users/Jim Dejito/OneDrive/Desktop/Jim Codes/Thesis/Scanom/model_output/best_model.keras

Epoch 17: finished saving model to /mnt/c/Users/Jim Dejito/OneDrive/Desktop/Jim Codes/Thesis/Scanom/model_output/best_model.keras
1051/1051 ━━━━━━━━━━━━━━━━━━━━ 33s 31ms/step - accuracy: 0.9892 - loss: 0.5369 - val_accuracy: 0.9861 - val_loss: 0.5580 - learning_rate: 1.0000e-04
Epoch 18/60
1051/1051 ━━━━━━━━━━━━━━━━━━━━ 0s 35ms/step - accuracy: 0.9879 - loss: 0.5357
Epoch 18: val_accuracy did not improve from 0.98610
1051/1051 ━━━━━━━━━━━━━━━━━━━━ 40s 38ms/step - accuracy: 0.9875 - loss: 0.5377 - val_accuracy: 0.9855 - val_loss: 0.5605 - learning_rate: 1.0000e-04
Epoch 19/60
1050/1051 ━━━━━━━━━━━━━━━━━━━━ 0s 35ms/step - accuracy: 0.9891 - loss: 0.5318
Epoch 19: val_accuracy improved from 0.98610 to 0.98694, saving model to /mnt/c/Users/Jim Dejito/OneDrive/Desktop/Jim Codes/Thesis/Scanom/model_output/best_model.keras

Epoch 19: finished saving model to /mnt/c/Users/Jim Dejito/OneDrive/Desktop/Jim Codes/Thesis/Scanom/model_output/best_model.keras
1051/1051 ━━━━━━━━━━━━━━━━━━━━ 41s 39ms/step - accuracy: 0.9894 - loss: 0.5321 - val_accuracy: 0.9869 - val_loss: 0.5518 - learning_rate: 1.0000e-04
Epoch 20/60
1031/1051 ━━━━━━━━━━━━━━━━━━━━ 0s 32ms/step - accuracy: 0.9885 - loss: 0.5314
Epoch 20: val_accuracy did not improve from 0.98694
1051/1051 ━━━━━━━━━━━━━━━━━━━━ 35s 33ms/step - accuracy: 0.9881 - loss: 0.5333 - val_accuracy: 0.9867 - val_loss: 0.5480 - learning_rate: 1.0000e-04
Epoch 21/60
1051/1051 ━━━━━━━━━━━━━━━━━━━━ 0s 35ms/step - accuracy: 0.9915 - loss: 0.5252
Epoch 21: val_accuracy did not improve from 0.98694
1051/1051 ━━━━━━━━━━━━━━━━━━━━ 40s 38ms/step - accuracy: 0.9907 - loss: 0.5267 - val_accuracy: 0.9842 - val_loss: 0.5492 - learning_rate: 1.0000e-04
Epoch 22/60
1051/1051 ━━━━━━━━━━━━━━━━━━━━ 0s 57ms/step - accuracy: 0.9908 - loss: 0.5257
Epoch 22: val_accuracy did not improve from 0.98694
1051/1051 ━━━━━━━━━━━━━━━━━━━━ 63s 59ms/step - accuracy: 0.9914 - loss: 0.5247 - val_accuracy: 0.9850 - val_loss: 0.5457 - learning_rate: 1.0000e-04
Epoch 23/60
W0000 00:00:1775793394.771079    3154 prefetch_autotuner.cc:55] Prefetch autotuner tried to allocate 4817728 bytes after encountering the first element of size 4817728 bytes.This already causes the autotune ram budget to be exceeded. To stay within the ram budget, either increase the ram budget or reduce element size
1051/1051 ━━━━━━━━━━━━━━━━━━━━ 0s 111ms/step - accuracy: 0.9903 - loss: 0.5213
Epoch 23: val_accuracy improved from 0.98694 to 0.98749, saving model to /mnt/c/Users/Jim Dejito/OneDrive/Desktop/Jim Codes/Thesis/Scanom/model_output/best_model.keras

Epoch 23: finished saving model to /mnt/c/Users/Jim Dejito/OneDrive/Desktop/Jim Codes/Thesis/Scanom/model_output/best_model.keras
1051/1051 ━━━━━━━━━━━━━━━━━━━━ 122s 115ms/step - accuracy: 0.9908 - loss: 0.5230 - val_accuracy: 0.9875 - val_loss: 0.5428 - learning_rate: 1.0000e-04
Epoch 24/60
1051/1051 ━━━━━━━━━━━━━━━━━━━━ 0s 32ms/step - accuracy: 0.9925 - loss: 0.5199
Epoch 24: val_accuracy did not improve from 0.98749
1051/1051 ━━━━━━━━━━━━━━━━━━━━ 36s 34ms/step - accuracy: 0.9924 - loss: 0.5203 - val_accuracy: 0.9867 - val_loss: 0.5495 - learning_rate: 1.0000e-04
Epoch 25/60
1051/1051 ━━━━━━━━━━━━━━━━━━━━ 0s 41ms/step - accuracy: 0.9929 - loss: 0.5173
Epoch 25: val_accuracy improved from 0.98749 to 0.98805, saving model to /mnt/c/Users/Jim Dejito/OneDrive/Desktop/Jim Codes/Thesis/Scanom/model_output/best_model.keras

Epoch 25: finished saving model to /mnt/c/Users/Jim Dejito/OneDrive/Desktop/Jim Codes/Thesis/Scanom/model_output/best_model.keras
1051/1051 ━━━━━━━━━━━━━━━━━━━━ 47s 44ms/step - accuracy: 0.9924 - loss: 0.5192 - val_accuracy: 0.9880 - val_loss: 0.5424 - learning_rate: 1.0000e-04
Epoch 26/60
1051/1051 ━━━━━━━━━━━━━━━━━━━━ 0s 57ms/step - accuracy: 0.9931 - loss: 0.5190
Epoch 26: val_accuracy did not improve from 0.98805
1051/1051 ━━━━━━━━━━━━━━━━━━━━ 61s 58ms/step - accuracy: 0.9931 - loss: 0.5198 - val_accuracy: 0.9861 - val_loss: 0.5460 - learning_rate: 1.0000e-04
Epoch 27/60
1051/1051 ━━━━━━━━━━━━━━━━━━━━ 0s 58ms/step - accuracy: 0.9915 - loss: 0.5158
Epoch 27: val_accuracy improved from 0.98805 to 0.99027, saving model to /mnt/c/Users/Jim Dejito/OneDrive/Desktop/Jim Codes/Thesis/Scanom/model_output/best_model.keras

Epoch 27: finished saving model to /mnt/c/Users/Jim Dejito/OneDrive/Desktop/Jim Codes/Thesis/Scanom/model_output/best_model.keras
1051/1051 ━━━━━━━━━━━━━━━━━━━━ 63s 59ms/step - accuracy: 0.9921 - loss: 0.5162 - val_accuracy: 0.9903 - val_loss: 0.5334 - learning_rate: 1.0000e-04
Epoch 28/60
1051/1051 ━━━━━━━━━━━━━━━━━━━━ 0s 40ms/step - accuracy: 0.9931 - loss: 0.5152
Epoch 28: val_accuracy did not improve from 0.99027
1051/1051 ━━━━━━━━━━━━━━━━━━━━ 45s 43ms/step - accuracy: 0.9936 - loss: 0.5149 - val_accuracy: 0.9867 - val_loss: 0.5427 - learning_rate: 1.0000e-04
Epoch 29/60
1051/1051 ━━━━━━━━━━━━━━━━━━━━ 0s 56ms/step - accuracy: 0.9939 - loss: 0.5138
Epoch 29: val_accuracy did not improve from 0.99027
1051/1051 ━━━━━━━━━━━━━━━━━━━━ 62s 58ms/step - accuracy: 0.9943 - loss: 0.5137 - val_accuracy: 0.9878 - val_loss: 0.5402 - learning_rate: 1.0000e-04
Epoch 30/60
1022/1051 ━━━━━━━━━━━━━━━━━━━━ 1s 58ms/step - accuracy: 0.9943 - loss: 0.5121
Epoch 30: val_accuracy did not improve from 0.99027
1051/1051 ━━━━━━━━━━━━━━━━━━━━ 81s 59ms/step - accuracy: 0.9939 - loss: 0.5138 - val_accuracy: 0.9900 - val_loss: 0.5348 - learning_rate: 1.0000e-04
Epoch 31/60
1051/1051 ━━━━━━━━━━━━━━━━━━━━ 0s 114ms/step - accuracy: 0.9930 - loss: 0.5125
Epoch 31: ReduceLROnPlateau reducing learning rate to 4.999999873689376e-05.

Epoch 31: val_accuracy did not improve from 0.99027
1051/1051 ━━━━━━━━━━━━━━━━━━━━ 121s 115ms/step - accuracy: 0.9934 - loss: 0.5130 - val_accuracy: 0.9903 - val_loss: 0.5353 - learning_rate: 1.0000e-04
Epoch 32/60
1051/1051 ━━━━━━━━━━━━━━━━━━━━ 0s 117ms/step - accuracy: 0.9938 - loss: 0.5108
Epoch 32: val_accuracy improved from 0.99027 to 0.99194, saving model to /mnt/c/Users/Jim Dejito/OneDrive/Desktop/Jim Codes/Thesis/Scanom/model_output/best_model.keras

Epoch 32: finished saving model to /mnt/c/Users/Jim Dejito/OneDrive/Desktop/Jim Codes/Thesis/Scanom/model_output/best_model.keras
1051/1051 ━━━━━━━━━━━━━━━━━━━━ 148s 121ms/step - accuracy: 0.9947 - loss: 0.5089 - val_accuracy: 0.9919 - val_loss: 0.5310 - learning_rate: 5.0000e-05
Epoch 33/60
1051/1051 ━━━━━━━━━━━━━━━━━━━━ 0s 37ms/step - accuracy: 0.9961 - loss: 0.5074
Epoch 33: val_accuracy did not improve from 0.99194
1051/1051 ━━━━━━━━━━━━━━━━━━━━ 41s 39ms/step - accuracy: 0.9958 - loss: 0.5067 - val_accuracy: 0.9897 - val_loss: 0.5348 - learning_rate: 5.0000e-05
Epoch 34/60
1051/1051 ━━━━━━━━━━━━━━━━━━━━ 0s 75ms/step - accuracy: 0.9959 - loss: 0.5044
Epoch 34: val_accuracy did not improve from 0.99194
1051/1051 ━━━━━━━━━━━━━━━━━━━━ 82s 78ms/step - accuracy: 0.9954 - loss: 0.5062 - val_accuracy: 0.9894 - val_loss: 0.5336 - learning_rate: 5.0000e-05
Epoch 35/60
1051/1051 ━━━━━━━━━━━━━━━━━━━━ 0s 115ms/step - accuracy: 0.9950 - loss: 0.5053
Epoch 35: val_accuracy did not improve from 0.99194
1051/1051 ━━━━━━━━━━━━━━━━━━━━ 123s 117ms/step - accuracy: 0.9949 - loss: 0.5062 - val_accuracy: 0.9914 - val_loss: 0.5298 - learning_rate: 5.0000e-05
Epoch 36/60
1051/1051 ━━━━━━━━━━━━━━━━━━━━ 0s 111ms/step - accuracy: 0.9957 - loss: 0.5032
Epoch 36: val_accuracy did not improve from 0.99194
1051/1051 ━━━━━━━━━━━━━━━━━━━━ 119s 113ms/step - accuracy: 0.9963 - loss: 0.5044 - val_accuracy: 0.9906 - val_loss: 0.5340 - learning_rate: 5.0000e-05
Epoch 37/60
1051/1051 ━━━━━━━━━━━━━━━━━━━━ 0s 117ms/step - accuracy: 0.9964 - loss: 0.5034
Epoch 37: val_accuracy did not improve from 0.99194
1051/1051 ━━━━━━━━━━━━━━━━━━━━ 125s 119ms/step - accuracy: 0.9966 - loss: 0.5038 - val_accuracy: 0.9906 - val_loss: 0.5322 - learning_rate: 5.0000e-05
Epoch 38/60
W0000 00:00:1775794670.870627    3154 prefetch_autotuner.cc:55] Prefetch autotuner tried to allocate 4817728 bytes after encountering the first element of size 4817728 bytes.This already causes the autotune ram budget to be exceeded. To stay within the ram budget, either increase the ram budget or reduce element size
1051/1051 ━━━━━━━━━━━━━━━━━━━━ 0s 113ms/step - accuracy: 0.9959 - loss: 0.5023
Epoch 38: val_accuracy did not improve from 0.99194
1051/1051 ━━━━━━━━━━━━━━━━━━━━ 121s 115ms/step - accuracy: 0.9963 - loss: 0.5031 - val_accuracy: 0.9894 - val_loss: 0.5340 - learning_rate: 5.0000e-05
Epoch 39/60
W0000 00:00:1775794792.347033    3154 prefetch_autotuner.cc:55] Prefetch autotuner tried to allocate 4817728 bytes after encountering the first element of size 4817728 bytes.This already causes the autotune ram budget to be exceeded. To stay within the ram budget, either increase the ram budget or reduce element size
1051/1051 ━━━━━━━━━━━━━━━━━━━━ 0s 114ms/step - accuracy: 0.9965 - loss: 0.5020
Epoch 39: ReduceLROnPlateau reducing learning rate to 2.499999936844688e-05.

Epoch 39: val_accuracy did not improve from 0.99194
1051/1051 ━━━━━━━━━━━━━━━━━━━━ 123s 117ms/step - accuracy: 0.9970 - loss: 0.5020 - val_accuracy: 0.9906 - val_loss: 0.5327 - learning_rate: 5.0000e-05
Epoch 40/60
W0000 00:00:1775794915.012159    3154 prefetch_autotuner.cc:55] Prefetch autotuner tried to allocate 4817728 bytes after encountering the first element of size 4817728 bytes.This already causes the autotune ram budget to be exceeded. To stay within the ram budget, either increase the ram budget or reduce element size
1042/1051 ━━━━━━━━━━━━━━━━━━━━ 1s 114ms/step - accuracy: 0.9980 - loss: 0.4995
Epoch 40: val_accuracy did not improve from 0.99194
1051/1051 ━━━━━━━━━━━━━━━━━━━━ 121s 115ms/step - accuracy: 0.9975 - loss: 0.5007 - val_accuracy: 0.9894 - val_loss: 0.5345 - learning_rate: 2.5000e-05
Epoch 41/60
W0000 00:00:1775795036.058850    3154 prefetch_autotuner.cc:55] Prefetch autotuner tried to allocate 4817728 bytes after encountering the first element of size 4817728 bytes.This already causes the autotune ram budget to be exceeded. To stay within the ram budget, either increase the ram budget or reduce element size
1051/1051 ━━━━━━━━━━━━━━━━━━━━ 0s 116ms/step - accuracy: 0.9962 - loss: 0.5027
Epoch 41: val_accuracy did not improve from 0.99194
1051/1051 ━━━━━━━━━━━━━━━━━━━━ 123s 117ms/step - accuracy: 0.9963 - loss: 0.5023 - val_accuracy: 0.9906 - val_loss: 0.5320 - learning_rate: 2.5000e-05
Epoch 42/60
W0000 00:00:1775795158.789615    3154 prefetch_autotuner.cc:55] Prefetch autotuner tried to allocate 4817728 bytes after encountering the first element of size 4817728 bytes.This already causes the autotune ram budget to be exceeded. To stay within the ram budget, either increase the ram budget or reduce element size
1051/1051 ━━━━━━━━━━━━━━━━━━━━ 0s 114ms/step - accuracy: 0.9975 - loss: 0.4984
Epoch 42: val_accuracy did not improve from 0.99194
1051/1051 ━━━━━━━━━━━━━━━━━━━━ 123s 117ms/step - accuracy: 0.9969 - loss: 0.4995 - val_accuracy: 0.9911 - val_loss: 0.5317 - learning_rate: 2.5000e-05
Epoch 42: early stopping
Restoring model weights from the end of the best epoch: 32.

=== EVALUATION ON TEST SET ===
226/226 ━━━━━━━━━━━━━━━━━━━━ 18s 81ms/step - accuracy: 0.9914 - loss: 0.5310
Test Accuracy: 0.9914 (99.14%)
Test Loss:     0.5310
226/226 ━━━━━━━━━━━━━━━━━━━━ 23s 46ms/step

Classification Report:
                       precision    recall  f1-score   support

       banana_cordana       1.00      1.00      1.00       155
       banana_healthy       1.00      1.00      1.00       225
   banana_panama_wilt       0.93      0.95      0.94        58
      banana_sigatoka       0.99      0.99      0.99       295
tomato_bacterial_spot       1.00      0.98      0.99       535
  tomato_early_blight       0.98      0.98      0.98       465
       tomato_healthy       1.00      1.00      1.00       579
   tomato_late_blight       0.98      1.00      0.99       587
     tomato_leaf_mold       0.99      0.99      0.99       525
tomato_powdery_mildew       1.00      1.00      1.00       189

             accuracy                           0.99      3613
            macro avg       0.99      0.99      0.99      3613
         weighted avg       0.99      0.99      0.99      3613


Report saved to /mnt/c/Users/Jim Dejito/OneDrive/Desktop/Jim Codes/Thesis/Scanom/model_output/classification_report.txt

=== EXPORTING TO TFLITE ===
Saved artifact at '/tmp/tmp0pgz9b03'. The following endpoints are available:

* Endpoint 'serve'
  args_0 (POSITIONAL_ONLY): TensorSpec(shape=(None, 224, 224, 3), dtype=tf.float32, name='keras_tensor_277')
Output Type:
  TensorSpec(shape=(None, 10), dtype=tf.float32, name=None)
Captures:
  127422345227600: TensorSpec(shape=(1, 1, 1, 3), dtype=tf.float16, name=None)
  127422345227024: TensorSpec(shape=(1, 1, 1, 3), dtype=tf.float16, name=None)
  127422345227984: TensorSpec(shape=(), dtype=tf.resource, name=None)
  127422345226832: TensorSpec(shape=(), dtype=tf.resource, name=None)
  127422345228560: TensorSpec(shape=(), dtype=tf.resource, name=None)
  127422345229328: TensorSpec(shape=(), dtype=tf.resource, name=None)
  127422345229904: TensorSpec(shape=(), dtype=tf.resource, name=None)
  127422345228176: TensorSpec(shape=(), dtype=tf.resource, name=None)
  127422345228368: TensorSpec(shape=(), dtype=tf.resource, name=None)
  127422345229712: TensorSpec(shape=(), dtype=tf.resource, name=None)
  127422345230288: TensorSpec(shape=(), dtype=tf.resource, name=None)
  127422345230864: TensorSpec(shape=(), dtype=tf.resource, name=None)
  127422345230096: TensorSpec(shape=(), dtype=tf.resource, name=None)
  127422345230672: TensorSpec(shape=(), dtype=tf.resource, name=None)
  127422345231440: TensorSpec(shape=(), dtype=tf.resource, name=None)
  127422345229136: TensorSpec(shape=(), dtype=tf.resource, name=None)
  127422345230480: TensorSpec(shape=(), dtype=tf.resource, name=None)
  127422345231632: TensorSpec(shape=(), dtype=tf.resource, name=None)
  127422345228752: TensorSpec(shape=(), dtype=tf.resource, name=None)
  127422345232016: TensorSpec(shape=(), dtype=tf.resource, name=None)
  127422345228944: TensorSpec(shape=(), dtype=tf.resource, name=None)
  127422345231248: TensorSpec(shape=(), dtype=tf.resource, name=None)
  127422345232208: TensorSpec(shape=(), dtype=tf.resource, name=None)
  127422015080016: TensorSpec(shape=(), dtype=tf.resource, name=None)
  127422015080592: TensorSpec(shape=(), dtype=tf.resource, name=None)
  127422015079632: TensorSpec(shape=(), dtype=tf.resource, name=None)
  127422015079248: TensorSpec(shape=(), dtype=tf.resource, name=None)
  127422015078480: TensorSpec(shape=(), dtype=tf.resource, name=None)
  127422015080400: TensorSpec(shape=(), dtype=tf.resource, name=None)
  127422015079824: TensorSpec(shape=(), dtype=tf.resource, name=None)
  127422015081168: TensorSpec(shape=(), dtype=tf.resource, name=None)
  127422015081744: TensorSpec(shape=(), dtype=tf.resource, name=None)
  127422015081936: TensorSpec(shape=(), dtype=tf.resource, name=None)
  127422015080784: TensorSpec(shape=(), dtype=tf.resource, name=None)
  127422015081360: TensorSpec(shape=(), dtype=tf.resource, name=None)
  127422015082320: TensorSpec(shape=(), dtype=tf.resource, name=None)
  127422015082896: TensorSpec(shape=(), dtype=tf.resource, name=None)
  127422015081552: TensorSpec(shape=(), dtype=tf.resource, name=None)
  127422015080208: TensorSpec(shape=(), dtype=tf.resource, name=None)
  127422015082704: TensorSpec(shape=(), dtype=tf.resource, name=None)
  127422015083280: TensorSpec(shape=(), dtype=tf.resource, name=None)
  127422015083856: TensorSpec(shape=(), dtype=tf.resource, name=None)
  127422015084048: TensorSpec(shape=(), dtype=tf.resource, name=None)
  127422015083088: TensorSpec(shape=(), dtype=tf.resource, name=None)
  127422015083472: TensorSpec(shape=(), dtype=tf.resource, name=None)
  127422015084432: TensorSpec(shape=(), dtype=tf.resource, name=None)
  127422015085008: TensorSpec(shape=(), dtype=tf.resource, name=None)
  127422015085200: TensorSpec(shape=(), dtype=tf.resource, name=None)
  127422015082512: TensorSpec(shape=(), dtype=tf.resource, name=None)
  127422015084624: TensorSpec(shape=(), dtype=tf.resource, name=None)
  127422015085584: TensorSpec(shape=(), dtype=tf.resource, name=None)
  127422015086160: TensorSpec(shape=(), dtype=tf.resource, name=None)
  127422015086352: TensorSpec(shape=(), dtype=tf.resource, name=None)
  127422015084240: TensorSpec(shape=(), dtype=tf.resource, name=None)
  127422015085776: TensorSpec(shape=(), dtype=tf.resource, name=None)
  127422015086736: TensorSpec(shape=(), dtype=tf.resource, name=None)
  127422015087312: TensorSpec(shape=(), dtype=tf.resource, name=None)
  127422015085968: TensorSpec(shape=(), dtype=tf.resource, name=None)
  127422015084816: TensorSpec(shape=(), dtype=tf.resource, name=None)
  127422015087120: TensorSpec(shape=(), dtype=tf.resource, name=None)
  127422015087696: TensorSpec(shape=(), dtype=tf.resource, name=None)
  127422015088272: TensorSpec(shape=(), dtype=tf.resource, name=None)
  127422015087504: TensorSpec(shape=(), dtype=tf.resource, name=None)
  127422015088656: TensorSpec(shape=(), dtype=tf.resource, name=None)
  127422015086544: TensorSpec(shape=(), dtype=tf.resource, name=None)
  127422015088080: TensorSpec(shape=(), dtype=tf.resource, name=None)
  127422015088464: TensorSpec(shape=(), dtype=tf.resource, name=None)
  127422015086928: TensorSpec(shape=(), dtype=tf.resource, name=None)
  127422015089232: TensorSpec(shape=(), dtype=tf.resource, name=None)
  127422015087888: TensorSpec(shape=(), dtype=tf.resource, name=None)
  127422015090000: TensorSpec(shape=(), dtype=tf.resource, name=None)
  127422015082128: TensorSpec(shape=(), dtype=tf.resource, name=None)
  127422015089424: TensorSpec(shape=(), dtype=tf.resource, name=None)
  127422015089808: TensorSpec(shape=(), dtype=tf.resource, name=None)
  127422015090384: TensorSpec(shape=(), dtype=tf.resource, name=None)
  127422015090960: TensorSpec(shape=(), dtype=tf.resource, name=None)
  127422015090192: TensorSpec(shape=(), dtype=tf.resource, name=None)
  127422015089616: TensorSpec(shape=(), dtype=tf.resource, name=None)
  127422015090768: TensorSpec(shape=(), dtype=tf.resource, name=None)
  127422015091344: TensorSpec(shape=(), dtype=tf.resource, name=None)
  127422015091920: TensorSpec(shape=(), dtype=tf.resource, name=None)
  127422015091152: TensorSpec(shape=(), dtype=tf.resource, name=None)
  127422015092304: TensorSpec(shape=(), dtype=tf.resource, name=None)
  127422015089040: TensorSpec(shape=(), dtype=tf.resource, name=None)
  127422015091728: TensorSpec(shape=(), dtype=tf.resource, name=None)
  127422015092112: TensorSpec(shape=(), dtype=tf.resource, name=None)
  127422015090576: TensorSpec(shape=(), dtype=tf.resource, name=None)
  127422015092880: TensorSpec(shape=(), dtype=tf.resource, name=None)
  127422015091536: TensorSpec(shape=(), dtype=tf.resource, name=None)
  127422015093648: TensorSpec(shape=(), dtype=tf.resource, name=None)
  127422015093840: TensorSpec(shape=(), dtype=tf.resource, name=None)
  127422015092496: TensorSpec(shape=(), dtype=tf.resource, name=None)
  127422015093456: TensorSpec(shape=(), dtype=tf.resource, name=None)
  127422015094032: TensorSpec(shape=(), dtype=tf.resource, name=None)
  127422015088848: TensorSpec(shape=(), dtype=tf.resource, name=None)
  127422015094416: TensorSpec(shape=(), dtype=tf.resource, name=None)
  127422015093264: TensorSpec(shape=(), dtype=tf.resource, name=None)
  127422015094224: TensorSpec(shape=(), dtype=tf.resource, name=None)
  127422015092688: TensorSpec(shape=(), dtype=tf.resource, name=None)
  127422015094608: TensorSpec(shape=(), dtype=tf.resource, name=None)
  127422015093072: TensorSpec(shape=(), dtype=tf.resource, name=None)
  127421905946384: TensorSpec(shape=(), dtype=tf.resource, name=None)
  127421905946000: TensorSpec(shape=(), dtype=tf.resource, name=None)
  127421905945232: TensorSpec(shape=(), dtype=tf.resource, name=None)
  127421905944848: TensorSpec(shape=(), dtype=tf.resource, name=None)
  127421905945040: TensorSpec(shape=(), dtype=tf.resource, name=None)
  127421905946576: TensorSpec(shape=(), dtype=tf.resource, name=None)
  127421905944656: TensorSpec(shape=(), dtype=tf.resource, name=None)
  127421905947344: TensorSpec(shape=(), dtype=tf.resource, name=None)
  127421905946960: TensorSpec(shape=(), dtype=tf.resource, name=None)
  127421905947152: TensorSpec(shape=(), dtype=tf.resource, name=None)
  127421905945616: TensorSpec(shape=(), dtype=tf.resource, name=None)
  127421905948112: TensorSpec(shape=(), dtype=tf.resource, name=None)
  127421905948688: TensorSpec(shape=(), dtype=tf.resource, name=None)
  127421905946192: TensorSpec(shape=(), dtype=tf.resource, name=None)
  127421905945808: TensorSpec(shape=(), dtype=tf.resource, name=None)
  127421905948496: TensorSpec(shape=(), dtype=tf.resource, name=None)
  127421905949072: TensorSpec(shape=(), dtype=tf.resource, name=None)
  127421905949648: TensorSpec(shape=(), dtype=tf.resource, name=None)
  127421905948880: TensorSpec(shape=(), dtype=tf.resource, name=None)
  127421905950032: TensorSpec(shape=(), dtype=tf.resource, name=None)
  127421905947920: TensorSpec(shape=(), dtype=tf.resource, name=None)
  127421905949456: TensorSpec(shape=(), dtype=tf.resource, name=None)
  127421905949840: TensorSpec(shape=(), dtype=tf.resource, name=None)
  127421905948304: TensorSpec(shape=(), dtype=tf.resource, name=None)
  127421905950608: TensorSpec(shape=(), dtype=tf.resource, name=None)
  127421905949264: TensorSpec(shape=(), dtype=tf.resource, name=None)
  127421905951376: TensorSpec(shape=(), dtype=tf.resource, name=None)
  127421905947728: TensorSpec(shape=(), dtype=tf.resource, name=None)
  127421905950800: TensorSpec(shape=(), dtype=tf.resource, name=None)
  127421905951184: TensorSpec(shape=(), dtype=tf.resource, name=None)
  127421905951760: TensorSpec(shape=(), dtype=tf.resource, name=None)
  127421905952336: TensorSpec(shape=(), dtype=tf.resource, name=None)
  127421905951568: TensorSpec(shape=(), dtype=tf.resource, name=None)
  127421905950992: TensorSpec(shape=(), dtype=tf.resource, name=None)
  127421905952144: TensorSpec(shape=(), dtype=tf.resource, name=None)
  127421905952720: TensorSpec(shape=(), dtype=tf.resource, name=None)
  127421905953296: TensorSpec(shape=(), dtype=tf.resource, name=None)
  127421905952528: TensorSpec(shape=(), dtype=tf.resource, name=None)
  127421905953680: TensorSpec(shape=(), dtype=tf.resource, name=None)
  127421905950416: TensorSpec(shape=(), dtype=tf.resource, name=None)
  127421905953104: TensorSpec(shape=(), dtype=tf.resource, name=None)
  127421905953488: TensorSpec(shape=(), dtype=tf.resource, name=None)
  127421905951952: TensorSpec(shape=(), dtype=tf.resource, name=None)
  127421905954256: TensorSpec(shape=(), dtype=tf.resource, name=None)
  127421905952912: TensorSpec(shape=(), dtype=tf.resource, name=None)
  127421905955024: TensorSpec(shape=(), dtype=tf.resource, name=None)
  127421905954640: TensorSpec(shape=(), dtype=tf.resource, name=None)
  127421905954832: TensorSpec(shape=(), dtype=tf.resource, name=None)
  127421905950224: TensorSpec(shape=(), dtype=tf.resource, name=None)
  127421905955792: TensorSpec(shape=(), dtype=tf.resource, name=None)
  127421905956368: TensorSpec(shape=(), dtype=tf.resource, name=None)
  127421905953872: TensorSpec(shape=(), dtype=tf.resource, name=None)
  127421905945424: TensorSpec(shape=(), dtype=tf.resource, name=None)
  127421905956176: TensorSpec(shape=(), dtype=tf.resource, name=None)
  127421905956752: TensorSpec(shape=(), dtype=tf.resource, name=None)
  127421905957328: TensorSpec(shape=(), dtype=tf.resource, name=None)
  127421905956560: TensorSpec(shape=(), dtype=tf.resource, name=None)
  127421905957712: TensorSpec(shape=(), dtype=tf.resource, name=None)
  127421905955600: TensorSpec(shape=(), dtype=tf.resource, name=None)
  127421905957136: TensorSpec(shape=(), dtype=tf.resource, name=None)
  127421905957520: TensorSpec(shape=(), dtype=tf.resource, name=None)
  127421905955984: TensorSpec(shape=(), dtype=tf.resource, name=None)
  127421905958288: TensorSpec(shape=(), dtype=tf.resource, name=None)
  127421905956944: TensorSpec(shape=(), dtype=tf.resource, name=None)
  127421905959056: TensorSpec(shape=(), dtype=tf.resource, name=None)
  127421905959248: TensorSpec(shape=(), dtype=tf.resource, name=None)
  127421905958672: TensorSpec(shape=(), dtype=tf.resource, name=None)
  127421905957904: TensorSpec(shape=(), dtype=tf.resource, name=None)
  127421905959632: TensorSpec(shape=(), dtype=tf.resource, name=None)
  127421905960208: TensorSpec(shape=(), dtype=tf.resource, name=None)
  127421905958864: TensorSpec(shape=(), dtype=tf.resource, name=None)
  127421905960016: TensorSpec(shape=(), dtype=tf.resource, name=None)
  127421905954064: TensorSpec(shape=(), dtype=tf.resource, name=None)
  127421905959440: TensorSpec(shape=(), dtype=tf.resource, name=None)
  127421905959824: TensorSpec(shape=(), dtype=tf.resource, name=None)
  127421905960592: TensorSpec(shape=(), dtype=tf.resource, name=None)
  127421905960784: TensorSpec(shape=(), dtype=tf.resource, name=None)
  127421905958480: TensorSpec(shape=(), dtype=tf.resource, name=None)
  127421905958096: TensorSpec(shape=(), dtype=tf.resource, name=None)
  127421905960400: TensorSpec(shape=(), dtype=tf.resource, name=None)
  127421062874128: TensorSpec(shape=(), dtype=tf.resource, name=None)
  127421062873744: TensorSpec(shape=(), dtype=tf.resource, name=None)
  127421062874896: TensorSpec(shape=(), dtype=tf.resource, name=None)
  127421062875088: TensorSpec(shape=(), dtype=tf.resource, name=None)
  127421062875280: TensorSpec(shape=(), dtype=tf.resource, name=None)
  127421062873168: TensorSpec(shape=(), dtype=tf.resource, name=None)
  127421062874704: TensorSpec(shape=(), dtype=tf.resource, name=None)
  127421062875664: TensorSpec(shape=(), dtype=tf.resource, name=None)
  127421062876240: TensorSpec(shape=(), dtype=tf.resource, name=None)
  127421062873936: TensorSpec(shape=(), dtype=tf.resource, name=None)
  127421062873552: TensorSpec(shape=(), dtype=tf.resource, name=None)
  127421062876048: TensorSpec(shape=(), dtype=tf.resource, name=None)
  127421062876624: TensorSpec(shape=(), dtype=tf.resource, name=None)
  127421062877200: TensorSpec(shape=(), dtype=tf.resource, name=None)
  127421062876432: TensorSpec(shape=(), dtype=tf.resource, name=None)
  127421062877584: TensorSpec(shape=(), dtype=tf.resource, name=None)
  127421062875472: TensorSpec(shape=(), dtype=tf.resource, name=None)
  127421062877008: TensorSpec(shape=(), dtype=tf.resource, name=None)
  127421062877392: TensorSpec(shape=(), dtype=tf.resource, name=None)
  127421062875856: TensorSpec(shape=(), dtype=tf.resource, name=None)
  127421062878160: TensorSpec(shape=(), dtype=tf.resource, name=None)
  127421062876816: TensorSpec(shape=(), dtype=tf.resource, name=None)
  127421062878928: TensorSpec(shape=(), dtype=tf.resource, name=None)
  127421062879120: TensorSpec(shape=(), dtype=tf.resource, name=None)
  127421062878544: TensorSpec(shape=(), dtype=tf.resource, name=None)
  127421062877776: TensorSpec(shape=(), dtype=tf.resource, name=None)
  127421062879504: TensorSpec(shape=(), dtype=tf.resource, name=None)
  127421062880080: TensorSpec(shape=(), dtype=tf.resource, name=None)
  127421062878736: TensorSpec(shape=(), dtype=tf.resource, name=None)
  127421062878352: TensorSpec(shape=(), dtype=tf.resource, name=None)
  127421062879888: TensorSpec(shape=(), dtype=tf.resource, name=None)
  127421062880464: TensorSpec(shape=(), dtype=tf.resource, name=None)
  127421062881040: TensorSpec(shape=(), dtype=tf.resource, name=None)
  127421062880272: TensorSpec(shape=(), dtype=tf.resource, name=None)
  127421062881424: TensorSpec(shape=(), dtype=tf.resource, name=None)
  127421062879312: TensorSpec(shape=(), dtype=tf.resource, name=None)
  127421062880848: TensorSpec(shape=(), dtype=tf.resource, name=None)
  127421062881232: TensorSpec(shape=(), dtype=tf.resource, name=None)
  127421062879696: TensorSpec(shape=(), dtype=tf.resource, name=None)
  127421062882000: TensorSpec(shape=(), dtype=tf.resource, name=None)
  127421062880656: TensorSpec(shape=(), dtype=tf.resource, name=None)
  127421062882768: TensorSpec(shape=(), dtype=tf.resource, name=None)
  127421062877968: TensorSpec(shape=(), dtype=tf.resource, name=None)
  127421062882192: TensorSpec(shape=(), dtype=tf.resource, name=None)
  127421062882576: TensorSpec(shape=(), dtype=tf.resource, name=None)
  127421062883152: TensorSpec(shape=(), dtype=tf.resource, name=None)
  127421062883728: TensorSpec(shape=(), dtype=tf.resource, name=None)
  127421062882960: TensorSpec(shape=(), dtype=tf.resource, name=None)
  127421062882384: TensorSpec(shape=(), dtype=tf.resource, name=None)
  127421062883536: TensorSpec(shape=(), dtype=tf.resource, name=None)
  127421062884112: TensorSpec(shape=(), dtype=tf.resource, name=None)
  127421062884688: TensorSpec(shape=(), dtype=tf.resource, name=None)
  127421062883920: TensorSpec(shape=(), dtype=tf.resource, name=None)
  127421062885072: TensorSpec(shape=(), dtype=tf.resource, name=None)
  127421062881808: TensorSpec(shape=(), dtype=tf.resource, name=None)
  127421062884496: TensorSpec(shape=(), dtype=tf.resource, name=None)
  127421062884880: TensorSpec(shape=(), dtype=tf.resource, name=None)
  127421062883344: TensorSpec(shape=(), dtype=tf.resource, name=None)
  127421062885648: TensorSpec(shape=(), dtype=tf.resource, name=None)
  127421062884304: TensorSpec(shape=(), dtype=tf.resource, name=None)
  127421062886416: TensorSpec(shape=(), dtype=tf.resource, name=None)
  127421062886608: TensorSpec(shape=(), dtype=tf.resource, name=None)
  127421062886032: TensorSpec(shape=(), dtype=tf.resource, name=None)
  127421062885264: TensorSpec(shape=(), dtype=tf.resource, name=None)
  127421062886992: TensorSpec(shape=(), dtype=tf.resource, name=None)
  127421062887568: TensorSpec(shape=(), dtype=tf.resource, name=None)
  127421062886224: TensorSpec(shape=(), dtype=tf.resource, name=None)
  127421062885840: TensorSpec(shape=(), dtype=tf.resource, name=None)
  127421062887376: TensorSpec(shape=(), dtype=tf.resource, name=None)
  127421062887952: TensorSpec(shape=(), dtype=tf.resource, name=None)
  127421062888528: TensorSpec(shape=(), dtype=tf.resource, name=None)
  127421062887760: TensorSpec(shape=(), dtype=tf.resource, name=None)
  127421062886800: TensorSpec(shape=(), dtype=tf.resource, name=None)
  127421062885456: TensorSpec(shape=(), dtype=tf.resource, name=None)
  127421062887184: TensorSpec(shape=(), dtype=tf.resource, name=None)
  127421062881616: TensorSpec(shape=(), dtype=tf.resource, name=None)
  127421062888336: TensorSpec(shape=(), dtype=tf.resource, name=None)
  127421062888912: TensorSpec(shape=(), dtype=tf.resource, name=None)
  127421062888144: TensorSpec(shape=(), dtype=tf.resource, name=None)
  127421062888720: TensorSpec(shape=(), dtype=tf.resource, name=None)
  127421062889296: TensorSpec(shape=(), dtype=tf.resource, name=None)
  127420760884816: TensorSpec(shape=(), dtype=tf.resource, name=None)
  127420760885008: TensorSpec(shape=(), dtype=tf.resource, name=None)
  127420760884240: TensorSpec(shape=(), dtype=tf.resource, name=None)
  127420760883664: TensorSpec(shape=(), dtype=tf.resource, name=None)
  127420760883472: TensorSpec(shape=(), dtype=tf.resource, name=None)
  127420760883280: TensorSpec(shape=(), dtype=tf.resource, name=None)
  127420760884048: TensorSpec(shape=(), dtype=tf.resource, name=None)
  127420760885584: TensorSpec(shape=(), dtype=tf.resource, name=None)
  127420760886160: TensorSpec(shape=(), dtype=tf.resource, name=None)
  127420760885392: TensorSpec(shape=(), dtype=tf.resource, name=None)
  127420760886544: TensorSpec(shape=(), dtype=tf.resource, name=None)
  127420760884432: TensorSpec(shape=(), dtype=tf.resource, name=None)
  127420760885968: TensorSpec(shape=(), dtype=tf.resource, name=None)
  127420760886352: TensorSpec(shape=(), dtype=tf.resource, name=None)
  127420760885200: TensorSpec(shape=(), dtype=tf.resource, name=None)
  127420760887120: TensorSpec(shape=(), dtype=tf.resource, name=None)
  127420760885776: TensorSpec(shape=(), dtype=tf.resource, name=None)
  127420760887888: TensorSpec(shape=(), dtype=tf.resource, name=None)
  127420760888080: TensorSpec(shape=(), dtype=tf.resource, name=None)
  127420760887504: TensorSpec(shape=(), dtype=tf.resource, name=None)
  127420760886736: TensorSpec(shape=(), dtype=tf.resource, name=None)
  127420760888464: TensorSpec(shape=(), dtype=tf.resource, name=None)
  127420760889040: TensorSpec(shape=(), dtype=tf.resource, name=None)
  127420760887696: TensorSpec(shape=(), dtype=tf.resource, name=None)
  127420760887312: TensorSpec(shape=(), dtype=tf.resource, name=None)
  127420760888848: TensorSpec(shape=(), dtype=tf.resource, name=None)
  127420760889424: TensorSpec(shape=(), dtype=tf.resource, name=None)
  127420760890000: TensorSpec(shape=(), dtype=tf.resource, name=None)
  127420760889232: TensorSpec(shape=(), dtype=tf.resource, name=None)
  127420760890384: TensorSpec(shape=(), dtype=tf.resource, name=None)
  127420760888272: TensorSpec(shape=(), dtype=tf.resource, name=None)
  127420760889808: TensorSpec(shape=(), dtype=tf.resource, name=None)
  127420760890192: TensorSpec(shape=(), dtype=tf.resource, name=None)
  127420760888656: TensorSpec(shape=(), dtype=tf.resource, name=None)
  127420760890960: TensorSpec(shape=(), dtype=tf.resource, name=None)
  127420760889616: TensorSpec(shape=(), dtype=tf.resource, name=None)
  127420760891728: TensorSpec(shape=(), dtype=tf.resource, name=None)
  127420760891920: TensorSpec(shape=(), dtype=tf.resource, name=None)
  127420760891344: TensorSpec(shape=(), dtype=tf.resource, name=None)
  127420760890576: TensorSpec(shape=(), dtype=tf.resource, name=None)
  127420760892304: TensorSpec(shape=(), dtype=tf.resource, name=None)
  127420760892880: TensorSpec(shape=(), dtype=tf.resource, name=None)
  127420760891536: TensorSpec(shape=(), dtype=tf.resource, name=None)
  127420760891152: TensorSpec(shape=(), dtype=tf.resource, name=None)
  127420760892688: TensorSpec(shape=(), dtype=tf.resource, name=None)
  127420760893264: TensorSpec(shape=(), dtype=tf.resource, name=None)
  127420760893840: TensorSpec(shape=(), dtype=tf.resource, name=None)
  127420760893072: TensorSpec(shape=(), dtype=tf.resource, name=None)
  127420760894224: TensorSpec(shape=(), dtype=tf.resource, name=None)
  127420760892112: TensorSpec(shape=(), dtype=tf.resource, name=None)
  127420760893648: TensorSpec(shape=(), dtype=tf.resource, name=None)
  127420760894032: TensorSpec(shape=(), dtype=tf.resource, name=None)
  127420760892496: TensorSpec(shape=(), dtype=tf.resource, name=None)
  127420760894800: TensorSpec(shape=(), dtype=tf.resource, name=None)
  127420760893456: TensorSpec(shape=(), dtype=tf.resource, name=None)
  127420760895568: TensorSpec(shape=(), dtype=tf.resource, name=None)
  127420760895760: TensorSpec(shape=(), dtype=tf.resource, name=None)
  127420760895184: TensorSpec(shape=(), dtype=tf.resource, name=None)
  127420760894416: TensorSpec(shape=(), dtype=tf.resource, name=None)
  127420760896144: TensorSpec(shape=(), dtype=tf.resource, name=None)
  127420760896720: TensorSpec(shape=(), dtype=tf.resource, name=None)
  127420760895376: TensorSpec(shape=(), dtype=tf.resource, name=None)
  127420760894992: TensorSpec(shape=(), dtype=tf.resource, name=None)
  127420760896528: TensorSpec(shape=(), dtype=tf.resource, name=None)
  127420760897104: TensorSpec(shape=(), dtype=tf.resource, name=None)
  127420760897680: TensorSpec(shape=(), dtype=tf.resource, name=None)
  127420760896912: TensorSpec(shape=(), dtype=tf.resource, name=None)
  127420760898064: TensorSpec(shape=(), dtype=tf.resource, name=None)
  127420760895952: TensorSpec(shape=(), dtype=tf.resource, name=None)
  127420760897488: TensorSpec(shape=(), dtype=tf.resource, name=None)
  127420760897872: TensorSpec(shape=(), dtype=tf.resource, name=None)
  127420760896336: TensorSpec(shape=(), dtype=tf.resource, name=None)
  127420760898640: TensorSpec(shape=(), dtype=tf.resource, name=None)
  127420760897296: TensorSpec(shape=(), dtype=tf.resource, name=None)
  127420760899408: TensorSpec(shape=(), dtype=tf.resource, name=None)
  127420760899024: TensorSpec(shape=(), dtype=tf.resource, name=None)
  127420760898448: TensorSpec(shape=(), dtype=tf.resource, name=None)
  127420760898832: TensorSpec(shape=(), dtype=tf.resource, name=None)
  127420760883856: TensorSpec(shape=(), dtype=tf.resource, name=None)
  127420760898256: TensorSpec(shape=(), dtype=tf.resource, name=None)
  127420760899216: TensorSpec(shape=(), dtype=tf.resource, name=None)
  127420454716432: TensorSpec(shape=(), dtype=tf.resource, name=None)
  127420454716048: TensorSpec(shape=(), dtype=tf.resource, name=None)
  127420454717200: TensorSpec(shape=(), dtype=tf.resource, name=None)
  127420454717392: TensorSpec(shape=(), dtype=tf.resource, name=None)
  127420454715664: TensorSpec(shape=(), dtype=tf.resource, name=None)
  127420454717776: TensorSpec(shape=(), dtype=tf.resource, name=None)
  127420454716624: TensorSpec(shape=(), dtype=tf.resource, name=None)
  127420454716240: TensorSpec(shape=(), dtype=tf.resource, name=None)
  127420454717584: TensorSpec(shape=(), dtype=tf.resource, name=None)
  127420454715472: TensorSpec(shape=(), dtype=tf.resource, name=None)
  127420454718352: TensorSpec(shape=(), dtype=tf.resource, name=None)
  127420454717008: TensorSpec(shape=(), dtype=tf.resource, name=None)
  127420454719120: TensorSpec(shape=(), dtype=tf.resource, name=None)
  127420454719312: TensorSpec(shape=(), dtype=tf.resource, name=None)
  127420454718736: TensorSpec(shape=(), dtype=tf.resource, name=None)
  127420454717968: TensorSpec(shape=(), dtype=tf.resource, name=None)
  127420454719696: TensorSpec(shape=(), dtype=tf.resource, name=None)
  127420454720272: TensorSpec(shape=(), dtype=tf.resource, name=None)
  127420454720464: TensorSpec(shape=(), dtype=tf.resource, name=None)
  127420454719888: TensorSpec(shape=(), dtype=tf.resource, name=None)
  127420454718160: TensorSpec(shape=(), dtype=tf.resource, name=None)
  127420454721424: TensorSpec(shape=(), dtype=tf.resource, name=None)
  127420454721232: TensorSpec(shape=(), dtype=tf.resource, name=None)
  127420454720656: TensorSpec(shape=(), dtype=tf.resource, name=None)
  127420454721808: TensorSpec(shape=(), dtype=tf.resource, name=None)
  127420454721616: TensorSpec(shape=(), dtype=tf.resource, name=None)
W0000 00:00:1775795341.557150     410 tf_tfl_flatbuffer_helpers.cc:364] Ignored output_format.
W0000 00:00:1775795341.557473     410 tf_tfl_flatbuffer_helpers.cc:367] Ignored drop_control_dependency.
I0000 00:00:1775795341.566688     410 reader.cc:83] Reading SavedModel from: /tmp/tmp0pgz9b03
I0000 00:00:1775795341.575755     410 reader.cc:52] Reading meta graph with tags { serve }
I0000 00:00:1775795341.575792     410 reader.cc:147] Reading SavedModel debug info (if present) from: /tmp/tmp0pgz9b03
I0000 00:00:1775795341.761309     410 mlir_graph_optimization_pass.cc:437] MLIR V1 optimization pass is not enabled
I0000 00:00:1775795341.784503     410 loader.cc:236] Restoring SavedModel bundle.
I0000 00:00:1775795342.589642     410 loader.cc:220] Running initialization op on SavedModel bundle at path: /tmp/tmp0pgz9b03
I0000 00:00:1775795342.771685     410 loader.cc:471] SavedModel load for tags { serve }; Status: success: OK. Took 1205011 microseconds.
loc(callsite(fused["Mul:", "functional_1_1/efficientnetv2-b0_1/rescaling_1/mul@__inference_function_460362"] at callsite(fused["StatefulPartitionedCall:", "StatefulPartitionedCall@__inference_signature_wrapper_461849"] at fused["StatefulPartitionedCall:", "StatefulPartitionedCall_1"]))): error: 'tf.Mul' op is neither a custom op nor a flex op
loc(callsite(fused["Sub:", "functional_1_1/efficientnetv2-b0_1/normalization_1/Sub@__inference_function_460362"] at callsite(fused["StatefulPartitionedCall:", "StatefulPartitionedCall@__inference_signature_wrapper_461849"] at fused["StatefulPartitionedCall:", "StatefulPartitionedCall_1"]))): error: 'tf.Sub' op is neither a custom op nor a flex op
loc(callsite(fused["RealDiv:", "functional_1_1/efficientnetv2-b0_1/normalization_1/truediv@__inference_function_460362"] at callsite(fused["StatefulPartitionedCall:","StatefulPartitionedCall@__inference_signature_wrapper_461849"] at fused["StatefulPartitionedCall:", "StatefulPartitionedCall_1"]))): error: 'tf.RealDiv' op is neither a custom op nor a flex op
loc(callsite(fused["Conv2D:", "functional_1_1/efficientnetv2-b0_1/stem_conv_1/convolution@__inference_function_460362"] at callsite(fused["StatefulPartitionedCall:", "StatefulPartitionedCall@__inference_signature_wrapper_461849"] at fused["StatefulPartitionedCall:", "StatefulPartitionedCall_1"]))): error: 'tf.Conv2D' op is neither a custom op nor a flex op
loc(callsite(fused["Sigmoid:", "functional_1_1/efficientnetv2-b0_1/stem_activation_1/Sigmoid@__inference_function_460362"] at callsite(fused["StatefulPartitionedCall:", "StatefulPartitionedCall@__inference_signature_wrapper_461849"] at fused["StatefulPartitionedCall:", "StatefulPartitionedCall_1"]))): error: 'tf.Sigmoid' op is neither a custom op nor a flex op
loc(callsite(fused["Mul:", "functional_1_1/efficientnetv2-b0_1/stem_activation_1/mul_1@__inference_function_460362"] at callsite(fused["StatefulPartitionedCall:", "StatefulPartitionedCall@__inference_signature_wrapper_461849"] at fused["StatefulPartitionedCall:", "StatefulPartitionedCall_1"]))): error: 'tf.Mul' op is neither a custom op nor a flex op
loc(callsite(fused["Conv2D:", "functional_1_1/efficientnetv2-b0_1/block1a_project_conv_1/convolution@__inference_function_460362"] at callsite(fused["StatefulPartitionedCall:", "StatefulPartitionedCall@__inference_signature_wrapper_461849"] at fused["StatefulPartitionedCall:", "StatefulPartitionedCall_1"]))): error: 'tf.Conv2D' op is neither a custom op nor a flex op
loc(callsite(fused["Sigmoid:", "functional_1_1/efficientnetv2-b0_1/block1a_project_activation_1/Sigmoid@__inference_function_460362"] at callsite(fused["StatefulPartitionedCall:", "StatefulPartitionedCall@__inference_signature_wrapper_461849"] at fused["StatefulPartitionedCall:", "StatefulPartitionedCall_1"]))): error: 'tf.Sigmoid'op is neither a custom op nor a flex op
loc(callsite(fused["Mul:", "functional_1_1/efficientnetv2-b0_1/block1a_project_activation_1/mul_1@__inference_function_460362"] at callsite(fused["StatefulPartitionedCall:", "StatefulPartitionedCall@__inference_signature_wrapper_461849"] at fused["StatefulPartitionedCall:", "StatefulPartitionedCall_1"]))): error: 'tf.Mul' op is neither a custom op nor a flex op
loc(callsite(fused["Conv2D:", "functional_1_1/efficientnetv2-b0_1/block2a_expand_conv_1/convolution@__inference_function_460362"] at callsite(fused["StatefulPartitionedCall:", "StatefulPartitionedCall@__inference_signature_wrapper_461849"] at fused["StatefulPartitionedCall:", "StatefulPartitionedCall_1"]))): error: 'tf.Conv2D' op is neither a custom op nor a flex op
loc(callsite(fused["Sigmoid:", "functional_1_1/efficientnetv2-b0_1/block2a_expand_activation_1/Sigmoid@__inference_function_460362"] at callsite(fused["StatefulPartitionedCall:", "StatefulPartitionedCall@__inference_signature_wrapper_461849"] at fused["StatefulPartitionedCall:", "StatefulPartitionedCall_1"]))): error: 'tf.Sigmoid' op is neither a custom op nor a flex op
loc(callsite(fused["Mul:", "functional_1_1/efficientnetv2-b0_1/block2a_expand_activation_1/mul_1@__inference_function_460362"] at callsite(fused["StatefulPartitionedCall:", "StatefulPartitionedCall@__inference_signature_wrapper_461849"] at fused["StatefulPartitionedCall:", "StatefulPartitionedCall_1"]))): error: 'tf.Mul' op is neither a custom op nor a flex op
loc(callsite(fused["Conv2D:", "functional_1_1/efficientnetv2-b0_1/block2a_project_conv_1/convolution@__inference_function_460362"] at callsite(fused["StatefulPartitionedCall:", "StatefulPartitionedCall@__inference_signature_wrapper_461849"] at fused["StatefulPartitionedCall:", "StatefulPartitionedCall_1"]))): error: 'tf.Conv2D' op is neither a custom op nor a flex op
loc(callsite(fused["Conv2D:", "functional_1_1/efficientnetv2-b0_1/block2b_expand_conv_1/convolution@__inference_function_460362"] at callsite(fused["StatefulPartitionedCall:", "StatefulPartitionedCall@__inference_signature_wrapper_461849"] at fused["StatefulPartitionedCall:", "StatefulPartitionedCall_1"]))): error: 'tf.Conv2D' op is neither a custom op nor a flex op
loc(callsite(fused["Sigmoid:", "functional_1_1/efficientnetv2-b0_1/block2b_expand_activation_1/Sigmoid@__inference_function_460362"] at callsite(fused["StatefulPartitionedCall:", "StatefulPartitionedCall@__inference_signature_wrapper_461849"] at fused["StatefulPartitionedCall:", "StatefulPartitionedCall_1"]))): error: 'tf.Sigmoid' op is neither a custom op nor a flex op
loc(callsite(fused["Mul:", "functional_1_1/efficientnetv2-b0_1/block2b_expand_activation_1/mul_1@__inference_function_460362"] at callsite(fused["StatefulPartitionedCall:", "StatefulPartitionedCall@__inference_signature_wrapper_461849"] at fused["StatefulPartitionedCall:", "StatefulPartitionedCall_1"]))): error: 'tf.Mul' op is neither a custom op nor a flex op
loc(callsite(fused["Conv2D:", "functional_1_1/efficientnetv2-b0_1/block2b_project_conv_1/convolution@__inference_function_460362"] at callsite(fused["StatefulPartitionedCall:", "StatefulPartitionedCall@__inference_signature_wrapper_461849"] at fused["StatefulPartitionedCall:", "StatefulPartitionedCall_1"]))): error: 'tf.Conv2D' op is neither a custom op nor a flex op
loc(callsite(fused["AddV2:", "functional_1_1/efficientnetv2-b0_1/block2b_add_1/Add@__inference_function_460362"] at callsite(fused["StatefulPartitionedCall:", "StatefulPartitionedCall@__inference_signature_wrapper_461849"] at fused["StatefulPartitionedCall:", "StatefulPartitionedCall_1"]))): error: 'tf.AddV2' op is neither a customop nor a flex op
loc(callsite(fused["Conv2D:", "functional_1_1/efficientnetv2-b0_1/block3a_expand_conv_1/convolution@__inference_function_460362"] at callsite(fused["StatefulPartitionedCall:", "StatefulPartitionedCall@__inference_signature_wrapper_461849"] at fused["StatefulPartitionedCall:", "StatefulPartitionedCall_1"]))): error: 'tf.Conv2D' op is neither a custom op nor a flex op
loc(callsite(fused["Sigmoid:", "functional_1_1/efficientnetv2-b0_1/block3a_expand_activation_1/Sigmoid@__inference_function_460362"] at callsite(fused["StatefulPartitionedCall:", "StatefulPartitionedCall@__inference_signature_wrapper_461849"] at fused["StatefulPartitionedCall:", "StatefulPartitionedCall_1"]))): error: 'tf.Sigmoid' op is neither a custom op nor a flex op
loc(callsite(fused["Mul:", "functional_1_1/efficientnetv2-b0_1/block3a_expand_activation_1/mul_1@__inference_function_460362"] at callsite(fused["StatefulPartitionedCall:", "StatefulPartitionedCall@__inference_signature_wrapper_461849"] at fused["StatefulPartitionedCall:", "StatefulPartitionedCall_1"]))): error: 'tf.Mul' op is neither a custom op nor a flex op
loc(callsite(fused["Conv2D:", "functional_1_1/efficientnetv2-b0_1/block3a_project_conv_1/convolution@__inference_function_460362"] at callsite(fused["StatefulPartitionedCall:", "StatefulPartitionedCall@__inference_signature_wrapper_461849"] at fused["StatefulPartitionedCall:", "StatefulPartitionedCall_1"]))): error: 'tf.Conv2D' op is neither a custom op nor a flex op
loc(callsite(fused["Conv2D:", "functional_1_1/efficientnetv2-b0_1/block3b_expand_conv_1/convolution@__inference_function_460362"] at callsite(fused["StatefulPartitionedCall:", "StatefulPartitionedCall@__inference_signature_wrapper_461849"] at fused["StatefulPartitionedCall:", "StatefulPartitionedCall_1"]))): error: 'tf.Conv2D' op is neither a custom op nor a flex op
loc(callsite(fused["Sigmoid:", "functional_1_1/efficientnetv2-b0_1/block3b_expand_activation_1/Sigmoid@__inference_function_460362"] at callsite(fused["StatefulPartitionedCall:", "StatefulPartitionedCall@__inference_signature_wrapper_461849"] at fused["StatefulPartitionedCall:", "StatefulPartitionedCall_1"]))): error: 'tf.Sigmoid' op is neither a custom op nor a flex op
loc(callsite(fused["Mul:", "functional_1_1/efficientnetv2-b0_1/block3b_expand_activation_1/mul_1@__inference_function_460362"] at callsite(fused["StatefulPartitionedCall:", "StatefulPartitionedCall@__inference_signature_wrapper_461849"] at fused["StatefulPartitionedCall:", "StatefulPartitionedCall_1"]))): error: 'tf.Mul' op is neither a custom op nor a flex op
loc(callsite(fused["Conv2D:", "functional_1_1/efficientnetv2-b0_1/block3b_project_conv_1/convolution@__inference_function_460362"] at callsite(fused["StatefulPartitionedCall:", "StatefulPartitionedCall@__inference_signature_wrapper_461849"] at fused["StatefulPartitionedCall:", "StatefulPartitionedCall_1"]))): error: 'tf.Conv2D' op is neither a custom op nor a flex op
loc(callsite(fused["AddV2:", "functional_1_1/efficientnetv2-b0_1/block3b_add_1/Add@__inference_function_460362"] at callsite(fused["StatefulPartitionedCall:", "StatefulPartitionedCall@__inference_signature_wrapper_461849"] at fused["StatefulPartitionedCall:", "StatefulPartitionedCall_1"]))): error: 'tf.AddV2' op is neither a customop nor a flex op
loc(callsite(fused["Conv2D:", "functional_1_1/efficientnetv2-b0_1/block4a_expand_conv_1/convolution@__inference_function_460362"] at callsite(fused["StatefulPartitionedCall:", "StatefulPartitionedCall@__inference_signature_wrapper_461849"] at fused["StatefulPartitionedCall:", "StatefulPartitionedCall_1"]))): error: 'tf.Conv2D' op is neither a custom op nor a flex op
loc(callsite(fused["Sigmoid:", "functional_1_1/efficientnetv2-b0_1/block4a_expand_activation_1/Sigmoid@__inference_function_460362"] at callsite(fused["StatefulPartitionedCall:", "StatefulPartitionedCall@__inference_signature_wrapper_461849"] at fused["StatefulPartitionedCall:", "StatefulPartitionedCall_1"]))): error: 'tf.Sigmoid' op is neither a custom op nor a flex op
loc(callsite(fused["Mul:", "functional_1_1/efficientnetv2-b0_1/block4a_expand_activation_1/mul_1@__inference_function_460362"] at callsite(fused["StatefulPartitionedCall:", "StatefulPartitionedCall@__inference_signature_wrapper_461849"] at fused["StatefulPartitionedCall:", "StatefulPartitionedCall_1"]))): error: 'tf.Mul' op is neither a custom op nor a flex op
loc(callsite(fused["DepthwiseConv2dNative:", "functional_1_1/efficientnetv2-b0_1/block4a_dwconv2_1/depthwise@__inference_function_460362"] at callsite(fused["StatefulPartitionedCall:", "StatefulPartitionedCall@__inference_signature_wrapper_461849"] at fused["StatefulPartitionedCall:", "StatefulPartitionedCall_1"]))): error: 'tf.DepthwiseConv2dNative' op is neither a custom op nor a flex op
loc(callsite(fused["Sigmoid:", "functional_1_1/efficientnetv2-b0_1/block4a_activation_1/Sigmoid@__inference_function_460362"] at callsite(fused["StatefulPartitionedCall:", "StatefulPartitionedCall@__inference_signature_wrapper_461849"] at fused["StatefulPartitionedCall:", "StatefulPartitionedCall_1"]))): error: 'tf.Sigmoid' op is neither a custom op nor a flex op
loc(callsite(fused["Mul:", "functional_1_1/efficientnetv2-b0_1/block4a_activation_1/mul_1@__inference_function_460362"] at callsite(fused["StatefulPartitionedCall:", "StatefulPartitionedCall@__inference_signature_wrapper_461849"] at fused["StatefulPartitionedCall:", "StatefulPartitionedCall_1"]))): error: 'tf.Mul' op is neither a custom op nor a flex op
loc(callsite(fused["Conv2D:", "functional_1_1/efficientnetv2-b0_1/block4a_se_reduce_1/convolution@__inference_function_460362"] at callsite(fused["StatefulPartitionedCall:", "StatefulPartitionedCall@__inference_signature_wrapper_461849"] at fused["StatefulPartitionedCall:", "StatefulPartitionedCall_1"]))): error: 'tf.Conv2D' op is neither a custom op nor a flex op
loc(callsite(fused["BiasAdd:", "functional_1_1/efficientnetv2-b0_1/block4a_se_reduce_1/BiasAdd@__inference_function_460362"] at callsite(fused["StatefulPartitionedCall:", "StatefulPartitionedCall@__inference_signature_wrapper_461849"] at fused["StatefulPartitionedCall:", "StatefulPartitionedCall_1"]))): error: 'tf.BiasAdd' op is neither a custom op nor a flex op
loc(callsite(fused["Sigmoid:", "functional_1_1/efficientnetv2-b0_1/block4a_se_reduce_1/Sigmoid@__inference_function_460362"] at callsite(fused["StatefulPartitionedCall:", "StatefulPartitionedCall@__inference_signature_wrapper_461849"] at fused["StatefulPartitionedCall:", "StatefulPartitionedCall_1"]))): error: 'tf.Sigmoid' op is neither a custom op nor a flex op
loc(callsite(fused["Mul:", "functional_1_1/efficientnetv2-b0_1/block4a_se_reduce_1/mul_1@__inference_function_460362"] at callsite(fused["StatefulPartitionedCall:", "StatefulPartitionedCall@__inference_signature_wrapper_461849"] at fused["StatefulPartitionedCall:", "StatefulPartitionedCall_1"]))): error: 'tf.Mul' op is neither a custom op nor a flex op
loc(callsite(fused["Conv2D:", "functional_1_1/efficientnetv2-b0_1/block4a_se_expand_1/convolution@__inference_function_460362"] at callsite(fused["StatefulPartitionedCall:", "StatefulPartitionedCall@__inference_signature_wrapper_461849"] at fused["StatefulPartitionedCall:", "StatefulPartitionedCall_1"]))): error: 'tf.Conv2D' op is neither a custom op nor a flex op
loc(callsite(fused["BiasAdd:", "functional_1_1/efficientnetv2-b0_1/block4a_se_expand_1/BiasAdd@__inference_function_460362"] at callsite(fused["StatefulPartitionedCall:", "StatefulPartitionedCall@__inference_signature_wrapper_461849"] at fused["StatefulPartitionedCall:", "StatefulPartitionedCall_1"]))): error: 'tf.BiasAdd' op is neither a custom op nor a flex op
loc(callsite(fused["Sigmoid:", "functional_1_1/efficientnetv2-b0_1/block4a_se_expand_1/Sigmoid@__inference_function_460362"] at callsite(fused["StatefulPartitionedCall:", "StatefulPartitionedCall@__inference_signature_wrapper_461849"] at fused["StatefulPartitionedCall:", "StatefulPartitionedCall_1"]))): error: 'tf.Sigmoid' op is neither a custom op nor a flex op
loc(callsite(fused["Mul:", "functional_1_1/efficientnetv2-b0_1/block4a_se_excite_1/Mul@__inference_function_460362"] at callsite(fused["StatefulPartitionedCall:", "StatefulPartitionedCall@__inference_signature_wrapper_461849"] at fused["StatefulPartitionedCall:", "StatefulPartitionedCall_1"]))): error: 'tf.Mul' op is neither a custom op nor a flex op
loc(callsite(fused["Conv2D:", "functional_1_1/efficientnetv2-b0_1/block4a_project_conv_1/convolution@__inference_function_460362"] at callsite(fused["StatefulPartitionedCall:", "StatefulPartitionedCall@__inference_signature_wrapper_461849"] at fused["StatefulPartitionedCall:", "StatefulPartitionedCall_1"]))): error: 'tf.Conv2D' op is neither a custom op nor a flex op
loc(callsite(fused["Conv2D:", "functional_1_1/efficientnetv2-b0_1/block4b_expand_conv_1/convolution@__inference_function_460362"] at callsite(fused["StatefulPartitionedCall:", "StatefulPartitionedCall@__inference_signature_wrapper_461849"] at fused["StatefulPartitionedCall:", "StatefulPartitionedCall_1"]))): error: 'tf.Conv2D' op is neither a custom op nor a flex op
loc(callsite(fused["Sigmoid:", "functional_1_1/efficientnetv2-b0_1/block4b_expand_activation_1/Sigmoid@__inference_function_460362"] at callsite(fused["StatefulPartitionedCall:", "StatefulPartitionedCall@__inference_signature_wrapper_461849"] at fused["StatefulPartitionedCall:", "StatefulPartitionedCall_1"]))): error: 'tf.Sigmoid' op is neither a custom op nor a flex op
loc(callsite(fused["Mul:", "functional_1_1/efficientnetv2-b0_1/block4b_expand_activation_1/mul_1@__inference_function_460362"] at callsite(fused["StatefulPartitionedCall:", "StatefulPartitionedCall@__inference_signature_wrapper_461849"] at fused["StatefulPartitionedCall:", "StatefulPartitionedCall_1"]))): error: 'tf.Mul' op is neither a custom op nor a flex op
loc(callsite(fused["DepthwiseConv2dNative:", "functional_1_1/efficientnetv2-b0_1/block4b_dwconv2_1/depthwise@__inference_function_460362"] at callsite(fused["StatefulPartitionedCall:", "StatefulPartitionedCall@__inference_signature_wrapper_461849"] at fused["StatefulPartitionedCall:", "StatefulPartitionedCall_1"]))): error: 'tf.DepthwiseConv2dNative' op is neither a custom op nor a flex op
loc(callsite(fused["Sigmoid:", "functional_1_1/efficientnetv2-b0_1/block4b_activation_1/Sigmoid@__inference_function_460362"] at callsite(fused["StatefulPartitionedCall:", "StatefulPartitionedCall@__inference_signature_wrapper_461849"] at fused["StatefulPartitionedCall:", "StatefulPartitionedCall_1"]))): error: 'tf.Sigmoid' op is neither a custom op nor a flex op
loc(callsite(fused["Mul:", "functional_1_1/efficientnetv2-b0_1/block4b_activation_1/mul_1@__inference_function_460362"] at callsite(fused["StatefulPartitionedCall:", "StatefulPartitionedCall@__inference_signature_wrapper_461849"] at fused["StatefulPartitionedCall:", "StatefulPartitionedCall_1"]))): error: 'tf.Mul' op is neither a custom op nor a flex op
loc(callsite(fused["Conv2D:", "functional_1_1/efficientnetv2-b0_1/block4b_se_reduce_1/convolution@__inference_function_460362"] at callsite(fused["StatefulPartitionedCall:", "StatefulPartitionedCall@__inference_signature_wrapper_461849"] at fused["StatefulPartitionedCall:", "StatefulPartitionedCall_1"]))): error: 'tf.Conv2D' op is neither a custom op nor a flex op
loc(callsite(fused["BiasAdd:", "functional_1_1/efficientnetv2-b0_1/block4b_se_reduce_1/BiasAdd@__inference_function_460362"] at callsite(fused["StatefulPartitionedCall:", "StatefulPartitionedCall@__inference_signature_wrapper_461849"] at fused["StatefulPartitionedCall:", "StatefulPartitionedCall_1"]))): error: 'tf.BiasAdd' op is neither a custom op nor a flex op
loc(callsite(fused["Sigmoid:", "functional_1_1/efficientnetv2-b0_1/block4b_se_reduce_1/Sigmoid@__inference_function_460362"] at callsite(fused["StatefulPartitionedCall:", "StatefulPartitionedCall@__inference_signature_wrapper_461849"] at fused["StatefulPartitionedCall:", "StatefulPartitionedCall_1"]))): error: 'tf.Sigmoid' op is neither a custom op nor a flex op
loc(callsite(fused["Mul:", "functional_1_1/efficientnetv2-b0_1/block4b_se_reduce_1/mul_1@__inference_function_460362"] at callsite(fused["StatefulPartitionedCall:", "StatefulPartitionedCall@__inference_signature_wrapper_461849"] at fused["StatefulPartitionedCall:", "StatefulPartitionedCall_1"]))): error: 'tf.Mul' op is neither a custom op nor a flex op
loc(callsite(fused["Conv2D:", "functional_1_1/efficientnetv2-b0_1/block4b_se_expand_1/convolution@__inference_function_460362"] at callsite(fused["StatefulPartitionedCall:", "StatefulPartitionedCall@__inference_signature_wrapper_461849"] at fused["StatefulPartitionedCall:", "StatefulPartitionedCall_1"]))): error: 'tf.Conv2D' op is neither a custom op nor a flex op
loc(callsite(fused["BiasAdd:", "functional_1_1/efficientnetv2-b0_1/block4b_se_expand_1/BiasAdd@__inference_function_460362"] at callsite(fused["StatefulPartitionedCall:", "StatefulPartitionedCall@__inference_signature_wrapper_461849"] at fused["StatefulPartitionedCall:", "StatefulPartitionedCall_1"]))): error: 'tf.BiasAdd' op is neither a custom op nor a flex op
loc(callsite(fused["Sigmoid:", "functional_1_1/efficientnetv2-b0_1/block4b_se_expand_1/Sigmoid@__inference_function_460362"] at callsite(fused["StatefulPartitionedCall:", "StatefulPartitionedCall@__inference_signature_wrapper_461849"] at fused["StatefulPartitionedCall:", "StatefulPartitionedCall_1"]))): error: 'tf.Sigmoid' op is neither a custom op nor a flex op
loc(callsite(fused["Mul:", "functional_1_1/efficientnetv2-b0_1/block4b_se_excite_1/Mul@__inference_function_460362"] at callsite(fused["StatefulPartitionedCall:", "StatefulPartitionedCall@__inference_signature_wrapper_461849"] at fused["StatefulPartitionedCall:", "StatefulPartitionedCall_1"]))): error: 'tf.Mul' op is neither a custom op nor a flex op
loc(callsite(fused["Conv2D:", "functional_1_1/efficientnetv2-b0_1/block4b_project_conv_1/convolution@__inference_function_460362"] at callsite(fused["StatefulPartitionedCall:", "StatefulPartitionedCall@__inference_signature_wrapper_461849"] at fused["StatefulPartitionedCall:", "StatefulPartitionedCall_1"]))): error: 'tf.Conv2D' op is neither a custom op nor a flex op
loc(callsite(fused["AddV2:", "functional_1_1/efficientnetv2-b0_1/block4b_add_1/Add@__inference_function_460362"] at callsite(fused["StatefulPartitionedCall:", "StatefulPartitionedCall@__inference_signature_wrapper_461849"] at fused["StatefulPartitionedCall:", "StatefulPartitionedCall_1"]))): error: 'tf.AddV2' op is neither a customop nor a flex op
loc(callsite(fused["Conv2D:", "functional_1_1/efficientnetv2-b0_1/block4c_expand_conv_1/convolution@__inference_function_460362"] at callsite(fused["StatefulPartitionedCall:", "StatefulPartitionedCall@__inference_signature_wrapper_461849"] at fused["StatefulPartitionedCall:", "StatefulPartitionedCall_1"]))): error: 'tf.Conv2D' op is neither a custom op nor a flex op
loc(callsite(fused["Sigmoid:", "functional_1_1/efficientnetv2-b0_1/block4c_expand_activation_1/Sigmoid@__inference_function_460362"] at callsite(fused["StatefulPartitionedCall:", "StatefulPartitionedCall@__inference_signature_wrapper_461849"] at fused["StatefulPartitionedCall:", "StatefulPartitionedCall_1"]))): error: 'tf.Sigmoid' op is neither a custom op nor a flex op
loc(callsite(fused["Mul:", "functional_1_1/efficientnetv2-b0_1/block4c_expand_activation_1/mul_1@__inference_function_460362"] at callsite(fused["StatefulPartitionedCall:", "StatefulPartitionedCall@__inference_signature_wrapper_461849"] at fused["StatefulPartitionedCall:", "StatefulPartitionedCall_1"]))): error: 'tf.Mul' op is neither a custom op nor a flex op
loc(callsite(fused["DepthwiseConv2dNative:", "functional_1_1/efficientnetv2-b0_1/block4c_dwconv2_1/depthwise@__inference_function_460362"] at callsite(fused["StatefulPartitionedCall:", "StatefulPartitionedCall@__inference_signature_wrapper_461849"] at fused["StatefulPartitionedCall:", "StatefulPartitionedCall_1"]))): error: 'tf.DepthwiseConv2dNative' op is neither a custom op nor a flex op
loc(callsite(fused["Sigmoid:", "functional_1_1/efficientnetv2-b0_1/block4c_activation_1/Sigmoid@__inference_function_460362"] at callsite(fused["StatefulPartitionedCall:", "StatefulPartitionedCall@__inference_signature_wrapper_461849"] at fused["StatefulPartitionedCall:", "StatefulPartitionedCall_1"]))): error: 'tf.Sigmoid' op is neither a custom op nor a flex op
loc(callsite(fused["Mul:", "functional_1_1/efficientnetv2-b0_1/block4c_activation_1/mul_1@__inference_function_460362"] at callsite(fused["StatefulPartitionedCall:", "StatefulPartitionedCall@__inference_signature_wrapper_461849"] at fused["StatefulPartitionedCall:", "StatefulPartitionedCall_1"]))): error: 'tf.Mul' op is neither a custom op nor a flex op
loc(callsite(fused["Conv2D:", "functional_1_1/efficientnetv2-b0_1/block4c_se_reduce_1/convolution@__inference_function_460362"] at callsite(fused["StatefulPartitionedCall:", "StatefulPartitionedCall@__inference_signature_wrapper_461849"] at fused["StatefulPartitionedCall:", "StatefulPartitionedCall_1"]))): error: 'tf.Conv2D' op is neither a custom op nor a flex op
loc(callsite(fused["BiasAdd:", "functional_1_1/efficientnetv2-b0_1/block4c_se_reduce_1/BiasAdd@__inference_function_460362"] at callsite(fused["StatefulPartitionedCall:", "StatefulPartitionedCall@__inference_signature_wrapper_461849"] at fused["StatefulPartitionedCall:", "StatefulPartitionedCall_1"]))): error: 'tf.BiasAdd' op is neither a custom op nor a flex op
loc(callsite(fused["Sigmoid:", "functional_1_1/efficientnetv2-b0_1/block4c_se_reduce_1/Sigmoid@__inference_function_460362"] at callsite(fused["StatefulPartitionedCall:", "StatefulPartitionedCall@__inference_signature_wrapper_461849"] at fused["StatefulPartitionedCall:", "StatefulPartitionedCall_1"]))): error: 'tf.Sigmoid' op is neither a custom op nor a flex op
loc(callsite(fused["Mul:", "functional_1_1/efficientnetv2-b0_1/block4c_se_reduce_1/mul_1@__inference_function_460362"] at callsite(fused["StatefulPartitionedCall:", "StatefulPartitionedCall@__inference_signature_wrapper_461849"] at fused["StatefulPartitionedCall:", "StatefulPartitionedCall_1"]))): error: 'tf.Mul' op is neither a custom op nor a flex op
loc(callsite(fused["Conv2D:", "functional_1_1/efficientnetv2-b0_1/block4c_se_expand_1/convolution@__inference_function_460362"] at callsite(fused["StatefulPartitionedCall:", "StatefulPartitionedCall@__inference_signature_wrapper_461849"] at fused["StatefulPartitionedCall:", "StatefulPartitionedCall_1"]))): error: 'tf.Conv2D' op is neither a custom op nor a flex op
loc(callsite(fused["BiasAdd:", "functional_1_1/efficientnetv2-b0_1/block4c_se_expand_1/BiasAdd@__inference_function_460362"] at callsite(fused["StatefulPartitionedCall:", "StatefulPartitionedCall@__inference_signature_wrapper_461849"] at fused["StatefulPartitionedCall:", "StatefulPartitionedCall_1"]))): error: 'tf.BiasAdd' op is neither a custom op nor a flex op
loc(callsite(fused["Sigmoid:", "functional_1_1/efficientnetv2-b0_1/block4c_se_expand_1/Sigmoid@__inference_function_460362"] at callsite(fused["StatefulPartitionedCall:", "StatefulPartitionedCall@__inference_signature_wrapper_461849"] at fused["StatefulPartitionedCall:", "StatefulPartitionedCall_1"]))): error: 'tf.Sigmoid' op is neither a custom op nor a flex op
loc(callsite(fused["Mul:", "functional_1_1/efficientnetv2-b0_1/block4c_se_excite_1/Mul@__inference_function_460362"] at callsite(fused["StatefulPartitionedCall:", "StatefulPartitionedCall@__inference_signature_wrapper_461849"] at fused["StatefulPartitionedCall:", "StatefulPartitionedCall_1"]))): error: 'tf.Mul' op is neither a custom op nor a flex op
loc(callsite(fused["Conv2D:", "functional_1_1/efficientnetv2-b0_1/block4c_project_conv_1/convolution@__inference_function_460362"] at callsite(fused["StatefulPartitionedCall:", "StatefulPartitionedCall@__inference_signature_wrapper_461849"] at fused["StatefulPartitionedCall:", "StatefulPartitionedCall_1"]))): error: 'tf.Conv2D' op is neither a custom op nor a flex op
loc(callsite(fused["AddV2:", "functional_1_1/efficientnetv2-b0_1/block4c_add_1/Add@__inference_function_460362"] at callsite(fused["StatefulPartitionedCall:", "StatefulPartitionedCall@__inference_signature_wrapper_461849"] at fused["StatefulPartitionedCall:", "StatefulPartitionedCall_1"]))): error: 'tf.AddV2' op is neither a customop nor a flex op
loc(callsite(fused["Conv2D:", "functional_1_1/efficientnetv2-b0_1/block5a_expand_conv_1/convolution@__inference_function_460362"] at callsite(fused["StatefulPartitionedCall:", "StatefulPartitionedCall@__inference_signature_wrapper_461849"] at fused["StatefulPartitionedCall:", "StatefulPartitionedCall_1"]))): error: 'tf.Conv2D' op is neither a custom op nor a flex op
loc(callsite(fused["Sigmoid:", "functional_1_1/efficientnetv2-b0_1/block5a_expand_activation_1/Sigmoid@__inference_function_460362"] at callsite(fused["StatefulPartitionedCall:", "StatefulPartitionedCall@__inference_signature_wrapper_461849"] at fused["StatefulPartitionedCall:", "StatefulPartitionedCall_1"]))): error: 'tf.Sigmoid' op is neither a custom op nor a flex op
loc(callsite(fused["Mul:", "functional_1_1/efficientnetv2-b0_1/block5a_expand_activation_1/mul_1@__inference_function_460362"] at callsite(fused["StatefulPartitionedCall:", "StatefulPartitionedCall@__inference_signature_wrapper_461849"] at fused["StatefulPartitionedCall:", "StatefulPartitionedCall_1"]))): error: 'tf.Mul' op is neither a custom op nor a flex op
loc(callsite(fused["DepthwiseConv2dNative:", "functional_1_1/efficientnetv2-b0_1/block5a_dwconv2_1/depthwise@__inference_function_460362"] at callsite(fused["StatefulPartitionedCall:", "StatefulPartitionedCall@__inference_signature_wrapper_461849"] at fused["StatefulPartitionedCall:", "StatefulPartitionedCall_1"]))): error: 'tf.DepthwiseConv2dNative' op is neither a custom op nor a flex op
loc(callsite(fused["Sigmoid:", "functional_1_1/efficientnetv2-b0_1/block5a_activation_1/Sigmoid@__inference_function_460362"] at callsite(fused["StatefulPartitionedCall:", "StatefulPartitionedCall@__inference_signature_wrapper_461849"] at fused["StatefulPartitionedCall:", "StatefulPartitionedCall_1"]))): error: 'tf.Sigmoid' op is neither a custom op nor a flex op
loc(callsite(fused["Mul:", "functional_1_1/efficientnetv2-b0_1/block5a_activation_1/mul_1@__inference_function_460362"] at callsite(fused["StatefulPartitionedCall:", "StatefulPartitionedCall@__inference_signature_wrapper_461849"] at fused["StatefulPartitionedCall:", "StatefulPartitionedCall_1"]))): error: 'tf.Mul' op is neither a custom op nor a flex op
loc(callsite(fused["Conv2D:", "functional_1_1/efficientnetv2-b0_1/block5a_se_reduce_1/convolution@__inference_function_460362"] at callsite(fused["StatefulPartitionedCall:", "StatefulPartitionedCall@__inference_signature_wrapper_461849"] at fused["StatefulPartitionedCall:", "StatefulPartitionedCall_1"]))): error: 'tf.Conv2D' op is neither a custom op nor a flex op
loc(callsite(fused["BiasAdd:", "functional_1_1/efficientnetv2-b0_1/block5a_se_reduce_1/BiasAdd@__inference_function_460362"] at callsite(fused["StatefulPartitionedCall:", "StatefulPartitionedCall@__inference_signature_wrapper_461849"] at fused["StatefulPartitionedCall:", "StatefulPartitionedCall_1"]))): error: 'tf.BiasAdd' op is neither a custom op nor a flex op
loc(callsite(fused["Sigmoid:", "functional_1_1/efficientnetv2-b0_1/block5a_se_reduce_1/Sigmoid@__inference_function_460362"] at callsite(fused["StatefulPartitionedCall:", "StatefulPartitionedCall@__inference_signature_wrapper_461849"] at fused["StatefulPartitionedCall:", "StatefulPartitionedCall_1"]))): error: 'tf.Sigmoid' op is neither a custom op nor a flex op
loc(callsite(fused["Mul:", "functional_1_1/efficientnetv2-b0_1/block5a_se_reduce_1/mul_1@__inference_function_460362"] at callsite(fused["StatefulPartitionedCall:", "StatefulPartitionedCall@__inference_signature_wrapper_461849"] at fused["StatefulPartitionedCall:", "StatefulPartitionedCall_1"]))): error: 'tf.Mul' op is neither a custom op nor a flex op
loc(callsite(fused["Conv2D:", "functional_1_1/efficientnetv2-b0_1/block5a_se_expand_1/convolution@__inference_function_460362"] at callsite(fused["StatefulPartitionedCall:", "StatefulPartitionedCall@__inference_signature_wrapper_461849"] at fused["StatefulPartitionedCall:", "StatefulPartitionedCall_1"]))): error: 'tf.Conv2D' op is neither a custom op nor a flex op
loc(callsite(fused["BiasAdd:", "functional_1_1/efficientnetv2-b0_1/block5a_se_expand_1/BiasAdd@__inference_function_460362"] at callsite(fused["StatefulPartitionedCall:", "StatefulPartitionedCall@__inference_signature_wrapper_461849"] at fused["StatefulPartitionedCall:", "StatefulPartitionedCall_1"]))): error: 'tf.BiasAdd' op is neither a custom op nor a flex op
loc(callsite(fused["Sigmoid:", "functional_1_1/efficientnetv2-b0_1/block5a_se_expand_1/Sigmoid@__inference_function_460362"] at callsite(fused["StatefulPartitionedCall:", "StatefulPartitionedCall@__inference_signature_wrapper_461849"] at fused["StatefulPartitionedCall:", "StatefulPartitionedCall_1"]))): error: 'tf.Sigmoid' op is neither a custom op nor a flex op
loc(callsite(fused["Mul:", "functional_1_1/efficientnetv2-b0_1/block5a_se_excite_1/Mul@__inference_function_460362"] at callsite(fused["StatefulPartitionedCall:", "StatefulPartitionedCall@__inference_signature_wrapper_461849"] at fused["StatefulPartitionedCall:", "StatefulPartitionedCall_1"]))): error: 'tf.Mul' op is neither a custom op nor a flex op
loc(callsite(fused["Conv2D:", "functional_1_1/efficientnetv2-b0_1/block5a_project_conv_1/convolution@__inference_function_460362"] at callsite(fused["StatefulPartitionedCall:", "StatefulPartitionedCall@__inference_signature_wrapper_461849"] at fused["StatefulPartitionedCall:", "StatefulPartitionedCall_1"]))): error: 'tf.Conv2D' op is neither a custom op nor a flex op
loc(callsite(fused["Conv2D:", "functional_1_1/efficientnetv2-b0_1/block5b_expand_conv_1/convolution@__inference_function_460362"] at callsite(fused["StatefulPartitionedCall:", "StatefulPartitionedCall@__inference_signature_wrapper_461849"] at fused["StatefulPartitionedCall:", "StatefulPartitionedCall_1"]))): error: 'tf.Conv2D' op is neither a custom op nor a flex op
loc(callsite(fused["Sigmoid:", "functional_1_1/efficientnetv2-b0_1/block5b_expand_activation_1/Sigmoid@__inference_function_460362"] at callsite(fused["StatefulPartitionedCall:", "StatefulPartitionedCall@__inference_signature_wrapper_461849"] at fused["StatefulPartitionedCall:", "StatefulPartitionedCall_1"]))): error: 'tf.Sigmoid' op is neither a custom op nor a flex op
loc(callsite(fused["Mul:", "functional_1_1/efficientnetv2-b0_1/block5b_expand_activation_1/mul_1@__inference_function_460362"] at callsite(fused["StatefulPartitionedCall:", "StatefulPartitionedCall@__inference_signature_wrapper_461849"] at fused["StatefulPartitionedCall:", "StatefulPartitionedCall_1"]))): error: 'tf.Mul' op is neither a custom op nor a flex op
loc(callsite(fused["DepthwiseConv2dNative:", "functional_1_1/efficientnetv2-b0_1/block5b_dwconv2_1/depthwise@__inference_function_460362"] at callsite(fused["StatefulPartitionedCall:", "StatefulPartitionedCall@__inference_signature_wrapper_461849"] at fused["StatefulPartitionedCall:", "StatefulPartitionedCall_1"]))): error: 'tf.DepthwiseConv2dNative' op is neither a custom op nor a flex op
loc(callsite(fused["Sigmoid:", "functional_1_1/efficientnetv2-b0_1/block5b_activation_1/Sigmoid@__inference_function_460362"] at callsite(fused["StatefulPartitionedCall:", "StatefulPartitionedCall@__inference_signature_wrapper_461849"] at fused["StatefulPartitionedCall:", "StatefulPartitionedCall_1"]))): error: 'tf.Sigmoid' op is neither a custom op nor a flex op
loc(callsite(fused["Mul:", "functional_1_1/efficientnetv2-b0_1/block5b_activation_1/mul_1@__inference_function_460362"] at callsite(fused["StatefulPartitionedCall:", "StatefulPartitionedCall@__inference_signature_wrapper_461849"] at fused["StatefulPartitionedCall:", "StatefulPartitionedCall_1"]))): error: 'tf.Mul' op is neither a custom op nor a flex op
loc(callsite(fused["Conv2D:", "functional_1_1/efficientnetv2-b0_1/block5b_se_reduce_1/convolution@__inference_function_460362"] at callsite(fused["StatefulPartitionedCall:", "StatefulPartitionedCall@__inference_signature_wrapper_461849"] at fused["StatefulPartitionedCall:", "StatefulPartitionedCall_1"]))): error: 'tf.Conv2D' op is neither a custom op nor a flex op
loc(callsite(fused["BiasAdd:", "functional_1_1/efficientnetv2-b0_1/block5b_se_reduce_1/BiasAdd@__inference_function_460362"] at callsite(fused["StatefulPartitionedCall:", "StatefulPartitionedCall@__inference_signature_wrapper_461849"] at fused["StatefulPartitionedCall:", "StatefulPartitionedCall_1"]))): error: 'tf.BiasAdd' op is neither a custom op nor a flex op
loc(callsite(fused["Sigmoid:", "functional_1_1/efficientnetv2-b0_1/block5b_se_reduce_1/Sigmoid@__inference_function_460362"] at callsite(fused["StatefulPartitionedCall:", "StatefulPartitionedCall@__inference_signature_wrapper_461849"] at fused["StatefulPartitionedCall:", "StatefulPartitionedCall_1"]))): error: 'tf.Sigmoid' op is neither a custom op nor a flex op
loc(callsite(fused["Mul:", "functional_1_1/efficientnetv2-b0_1/block5b_se_reduce_1/mul_1@__inference_function_460362"] at callsite(fused["StatefulPartitionedCall:", "StatefulPartitionedCall@__inference_signature_wrapper_461849"] at fused["StatefulPartitionedCall:", "StatefulPartitionedCall_1"]))): error: 'tf.Mul' op is neither a custom op nor a flex op
loc(callsite(fused["Conv2D:", "functional_1_1/efficientnetv2-b0_1/block5b_se_expand_1/convolution@__inference_function_460362"] at callsite(fused["StatefulPartitionedCall:", "StatefulPartitionedCall@__inference_signature_wrapper_461849"] at fused["StatefulPartitionedCall:", "StatefulPartitionedCall_1"]))): error: 'tf.Conv2D' op is neither a custom op nor a flex op
loc(callsite(fused["BiasAdd:", "functional_1_1/efficientnetv2-b0_1/block5b_se_expand_1/BiasAdd@__inference_function_460362"] at callsite(fused["StatefulPartitionedCall:", "StatefulPartitionedCall@__inference_signature_wrapper_461849"] at fused["StatefulPartitionedCall:", "StatefulPartitionedCall_1"]))): error: 'tf.BiasAdd' op is neither a custom op nor a flex op
loc(callsite(fused["Sigmoid:", "functional_1_1/efficientnetv2-b0_1/block5b_se_expand_1/Sigmoid@__inference_function_460362"] at callsite(fused["StatefulPartitionedCall:", "StatefulPartitionedCall@__inference_signature_wrapper_461849"] at fused["StatefulPartitionedCall:", "StatefulPartitionedCall_1"]))): error: 'tf.Sigmoid' op is neither a custom op nor a flex op
loc(callsite(fused["Mul:", "functional_1_1/efficientnetv2-b0_1/block5b_se_excite_1/Mul@__inference_function_460362"] at callsite(fused["StatefulPartitionedCall:", "StatefulPartitionedCall@__inference_signature_wrapper_461849"] at fused["StatefulPartitionedCall:", "StatefulPartitionedCall_1"]))): error: 'tf.Mul' op is neither a custom op nor a flex op
loc(callsite(fused["Conv2D:", "functional_1_1/efficientnetv2-b0_1/block5b_project_conv_1/convolution@__inference_function_460362"] at callsite(fused["StatefulPartitionedCall:", "StatefulPartitionedCall@__inference_signature_wrapper_461849"] at fused["StatefulPartitionedCall:", "StatefulPartitionedCall_1"]))): error: 'tf.Conv2D' op is neither a custom op nor a flex op
loc(callsite(fused["AddV2:", "functional_1_1/efficientnetv2-b0_1/block5b_add_1/Add@__inference_function_460362"] at callsite(fused["StatefulPartitionedCall:", "StatefulPartitionedCall@__inference_signature_wrapper_461849"] at fused["StatefulPartitionedCall:", "StatefulPartitionedCall_1"]))): error: 'tf.AddV2' op is neither a customop nor a flex op
loc(callsite(fused["Conv2D:", "functional_1_1/efficientnetv2-b0_1/block5c_expand_conv_1/convolution@__inference_function_460362"] at callsite(fused["StatefulPartitionedCall:", "StatefulPartitionedCall@__inference_signature_wrapper_461849"] at fused["StatefulPartitionedCall:", "StatefulPartitionedCall_1"]))): error: 'tf.Conv2D' op is neither a custom op nor a flex op
loc(callsite(fused["Sigmoid:", "functional_1_1/efficientnetv2-b0_1/block5c_expand_activation_1/Sigmoid@__inference_function_460362"] at callsite(fused["StatefulPartitionedCall:", "StatefulPartitionedCall@__inference_signature_wrapper_461849"] at fused["StatefulPartitionedCall:", "StatefulPartitionedCall_1"]))): error: 'tf.Sigmoid' op is neither a custom op nor a flex op
loc(callsite(fused["Mul:", "functional_1_1/efficientnetv2-b0_1/block5c_expand_activation_1/mul_1@__inference_function_460362"] at callsite(fused["StatefulPartitionedCall:", "StatefulPartitionedCall@__inference_signature_wrapper_461849"] at fused["StatefulPartitionedCall:", "StatefulPartitionedCall_1"]))): error: 'tf.Mul' op is neither a custom op nor a flex op
loc(callsite(fused["DepthwiseConv2dNative:", "functional_1_1/efficientnetv2-b0_1/block5c_dwconv2_1/depthwise@__inference_function_460362"] at callsite(fused["StatefulPartitionedCall:", "StatefulPartitionedCall@__inference_signature_wrapper_461849"] at fused["StatefulPartitionedCall:", "StatefulPartitionedCall_1"]))): error: 'tf.DepthwiseConv2dNative' op is neither a custom op nor a flex op
loc(callsite(fused["Sigmoid:", "functional_1_1/efficientnetv2-b0_1/block5c_activation_1/Sigmoid@__inference_function_460362"] at callsite(fused["StatefulPartitionedCall:", "StatefulPartitionedCall@__inference_signature_wrapper_461849"] at fused["StatefulPartitionedCall:", "StatefulPartitionedCall_1"]))): error: 'tf.Sigmoid' op is neither a custom op nor a flex op
loc(callsite(fused["Mul:", "functional_1_1/efficientnetv2-b0_1/block5c_activation_1/mul_1@__inference_function_460362"] at callsite(fused["StatefulPartitionedCall:", "StatefulPartitionedCall@__inference_signature_wrapper_461849"] at fused["StatefulPartitionedCall:", "StatefulPartitionedCall_1"]))): error: 'tf.Mul' op is neither a custom op nor a flex op
loc(callsite(fused["Conv2D:", "functional_1_1/efficientnetv2-b0_1/block5c_se_reduce_1/convolution@__inference_function_460362"] at callsite(fused["StatefulPartitionedCall:", "StatefulPartitionedCall@__inference_signature_wrapper_461849"] at fused["StatefulPartitionedCall:", "StatefulPartitionedCall_1"]))): error: 'tf.Conv2D' op is neither a custom op nor a flex op
loc(callsite(fused["BiasAdd:", "functional_1_1/efficientnetv2-b0_1/block5c_se_reduce_1/BiasAdd@__inference_function_460362"] at callsite(fused["StatefulPartitionedCall:", "StatefulPartitionedCall@__inference_signature_wrapper_461849"] at fused["StatefulPartitionedCall:", "StatefulPartitionedCall_1"]))): error: 'tf.BiasAdd' op is neither a custom op nor a flex op
loc(callsite(fused["Sigmoid:", "functional_1_1/efficientnetv2-b0_1/block5c_se_reduce_1/Sigmoid@__inference_function_460362"] at callsite(fused["StatefulPartitionedCall:", "StatefulPartitionedCall@__inference_signature_wrapper_461849"] at fused["StatefulPartitionedCall:", "StatefulPartitionedCall_1"]))): error: 'tf.Sigmoid' op is neither a custom op nor a flex op
loc(callsite(fused["Mul:", "functional_1_1/efficientnetv2-b0_1/block5c_se_reduce_1/mul_1@__inference_function_460362"] at callsite(fused["StatefulPartitionedCall:", "StatefulPartitionedCall@__inference_signature_wrapper_461849"] at fused["StatefulPartitionedCall:", "StatefulPartitionedCall_1"]))): error: 'tf.Mul' op is neither a custom op nor a flex op
loc(callsite(fused["Conv2D:", "functional_1_1/efficientnetv2-b0_1/block5c_se_expand_1/convolution@__inference_function_460362"] at callsite(fused["StatefulPartitionedCall:", "StatefulPartitionedCall@__inference_signature_wrapper_461849"] at fused["StatefulPartitionedCall:", "StatefulPartitionedCall_1"]))): error: 'tf.Conv2D' op is neither a custom op nor a flex op
loc(callsite(fused["BiasAdd:", "functional_1_1/efficientnetv2-b0_1/block5c_se_expand_1/BiasAdd@__inference_function_460362"] at callsite(fused["StatefulPartitionedCall:", "StatefulPartitionedCall@__inference_signature_wrapper_461849"] at fused["StatefulPartitionedCall:", "StatefulPartitionedCall_1"]))): error: 'tf.BiasAdd' op is neither a custom op nor a flex op
loc(callsite(fused["Sigmoid:", "functional_1_1/efficientnetv2-b0_1/block5c_se_expand_1/Sigmoid@__inference_function_460362"] at callsite(fused["StatefulPartitionedCall:", "StatefulPartitionedCall@__inference_signature_wrapper_461849"] at fused["StatefulPartitionedCall:", "StatefulPartitionedCall_1"]))): error: 'tf.Sigmoid' op is neither a custom op nor a flex op
loc(callsite(fused["Mul:", "functional_1_1/efficientnetv2-b0_1/block5c_se_excite_1/Mul@__inference_function_460362"] at callsite(fused["StatefulPartitionedCall:", "StatefulPartitionedCall@__inference_signature_wrapper_461849"] at fused["StatefulPartitionedCall:", "StatefulPartitionedCall_1"]))): error: 'tf.Mul' op is neither a custom op nor a flex op
loc(callsite(fused["Conv2D:", "functional_1_1/efficientnetv2-b0_1/block5c_project_conv_1/convolution@__inference_function_460362"] at callsite(fused["StatefulPartitionedCall:", "StatefulPartitionedCall@__inference_signature_wrapper_461849"] at fused["StatefulPartitionedCall:", "StatefulPartitionedCall_1"]))): error: 'tf.Conv2D' op is neither a custom op nor a flex op
loc(callsite(fused["AddV2:", "functional_1_1/efficientnetv2-b0_1/block5c_add_1/Add@__inference_function_460362"] at callsite(fused["StatefulPartitionedCall:", "StatefulPartitionedCall@__inference_signature_wrapper_461849"] at fused["StatefulPartitionedCall:", "StatefulPartitionedCall_1"]))): error: 'tf.AddV2' op is neither a customop nor a flex op
loc(callsite(fused["Conv2D:", "functional_1_1/efficientnetv2-b0_1/block5d_expand_conv_1/convolution@__inference_function_460362"] at callsite(fused["StatefulPartitionedCall:", "StatefulPartitionedCall@__inference_signature_wrapper_461849"] at fused["StatefulPartitionedCall:", "StatefulPartitionedCall_1"]))): error: 'tf.Conv2D' op is neither a custom op nor a flex op
loc(callsite(fused["Sigmoid:", "functional_1_1/efficientnetv2-b0_1/block5d_expand_activation_1/Sigmoid@__inference_function_460362"] at callsite(fused["StatefulPartitionedCall:", "StatefulPartitionedCall@__inference_signature_wrapper_461849"] at fused["StatefulPartitionedCall:", "StatefulPartitionedCall_1"]))): error: 'tf.Sigmoid' op is neither a custom op nor a flex op
loc(callsite(fused["Mul:", "functional_1_1/efficientnetv2-b0_1/block5d_expand_activation_1/mul_1@__inference_function_460362"] at callsite(fused["StatefulPartitionedCall:", "StatefulPartitionedCall@__inference_signature_wrapper_461849"] at fused["StatefulPartitionedCall:", "StatefulPartitionedCall_1"]))): error: 'tf.Mul' op is neither a custom op nor a flex op
loc(callsite(fused["DepthwiseConv2dNative:", "functional_1_1/efficientnetv2-b0_1/block5d_dwconv2_1/depthwise@__inference_function_460362"] at callsite(fused["StatefulPartitionedCall:", "StatefulPartitionedCall@__inference_signature_wrapper_461849"] at fused["StatefulPartitionedCall:", "StatefulPartitionedCall_1"]))): error: 'tf.DepthwiseConv2dNative' op is neither a custom op nor a flex op
loc(callsite(fused["Sigmoid:", "functional_1_1/efficientnetv2-b0_1/block5d_activation_1/Sigmoid@__inference_function_460362"] at callsite(fused["StatefulPartitionedCall:", "StatefulPartitionedCall@__inference_signature_wrapper_461849"] at fused["StatefulPartitionedCall:", "StatefulPartitionedCall_1"]))): error: 'tf.Sigmoid' op is neither a custom op nor a flex op
loc(callsite(fused["Mul:", "functional_1_1/efficientnetv2-b0_1/block5d_activation_1/mul_1@__inference_function_460362"] at callsite(fused["StatefulPartitionedCall:", "StatefulPartitionedCall@__inference_signature_wrapper_461849"] at fused["StatefulPartitionedCall:", "StatefulPartitionedCall_1"]))): error: 'tf.Mul' op is neither a custom op nor a flex op
loc(callsite(fused["Conv2D:", "functional_1_1/efficientnetv2-b0_1/block5d_se_reduce_1/convolution@__inference_function_460362"] at callsite(fused["StatefulPartitionedCall:", "StatefulPartitionedCall@__inference_signature_wrapper_461849"] at fused["StatefulPartitionedCall:", "StatefulPartitionedCall_1"]))): error: 'tf.Conv2D' op is neither a custom op nor a flex op
loc(callsite(fused["BiasAdd:", "functional_1_1/efficientnetv2-b0_1/block5d_se_reduce_1/BiasAdd@__inference_function_460362"] at callsite(fused["StatefulPartitionedCall:", "StatefulPartitionedCall@__inference_signature_wrapper_461849"] at fused["StatefulPartitionedCall:", "StatefulPartitionedCall_1"]))): error: 'tf.BiasAdd' op is neither a custom op nor a flex op
loc(callsite(fused["Sigmoid:", "functional_1_1/efficientnetv2-b0_1/block5d_se_reduce_1/Sigmoid@__inference_function_460362"] at callsite(fused["StatefulPartitionedCall:", "StatefulPartitionedCall@__inference_signature_wrapper_461849"] at fused["StatefulPartitionedCall:", "StatefulPartitionedCall_1"]))): error: 'tf.Sigmoid' op is neither a custom op nor a flex op
loc(callsite(fused["Mul:", "functional_1_1/efficientnetv2-b0_1/block5d_se_reduce_1/mul_1@__inference_function_460362"] at callsite(fused["StatefulPartitionedCall:", "StatefulPartitionedCall@__inference_signature_wrapper_461849"] at fused["StatefulPartitionedCall:", "StatefulPartitionedCall_1"]))): error: 'tf.Mul' op is neither a custom op nor a flex op
loc(callsite(fused["Conv2D:", "functional_1_1/efficientnetv2-b0_1/block5d_se_expand_1/convolution@__inference_function_460362"] at callsite(fused["StatefulPartitionedCall:", "StatefulPartitionedCall@__inference_signature_wrapper_461849"] at fused["StatefulPartitionedCall:", "StatefulPartitionedCall_1"]))): error: 'tf.Conv2D' op is neither a custom op nor a flex op
loc(callsite(fused["BiasAdd:", "functional_1_1/efficientnetv2-b0_1/block5d_se_expand_1/BiasAdd@__inference_function_460362"] at callsite(fused["StatefulPartitionedCall:", "StatefulPartitionedCall@__inference_signature_wrapper_461849"] at fused["StatefulPartitionedCall:", "StatefulPartitionedCall_1"]))): error: 'tf.BiasAdd' op is neither a custom op nor a flex op
loc(callsite(fused["Sigmoid:", "functional_1_1/efficientnetv2-b0_1/block5d_se_expand_1/Sigmoid@__inference_function_460362"] at callsite(fused["StatefulPartitionedCall:", "StatefulPartitionedCall@__inference_signature_wrapper_461849"] at fused["StatefulPartitionedCall:", "StatefulPartitionedCall_1"]))): error: 'tf.Sigmoid' op is neither a custom op nor a flex op
loc(callsite(fused["Mul:", "functional_1_1/efficientnetv2-b0_1/block5d_se_excite_1/Mul@__inference_function_460362"] at callsite(fused["StatefulPartitionedCall:", "StatefulPartitionedCall@__inference_signature_wrapper_461849"] at fused["StatefulPartitionedCall:", "StatefulPartitionedCall_1"]))): error: 'tf.Mul' op is neither a custom op nor a flex op
loc(callsite(fused["Conv2D:", "functional_1_1/efficientnetv2-b0_1/block5d_project_conv_1/convolution@__inference_function_460362"] at callsite(fused["StatefulPartitionedCall:", "StatefulPartitionedCall@__inference_signature_wrapper_461849"] at fused["StatefulPartitionedCall:", "StatefulPartitionedCall_1"]))): error: 'tf.Conv2D' op is neither a custom op nor a flex op
loc(callsite(fused["AddV2:", "functional_1_1/efficientnetv2-b0_1/block5d_add_1/Add@__inference_function_460362"] at callsite(fused["StatefulPartitionedCall:", "StatefulPartitionedCall@__inference_signature_wrapper_461849"] at fused["StatefulPartitionedCall:", "StatefulPartitionedCall_1"]))): error: 'tf.AddV2' op is neither a customop nor a flex op
loc(callsite(fused["Conv2D:", "functional_1_1/efficientnetv2-b0_1/block5e_expand_conv_1/convolution@__inference_function_460362"] at callsite(fused["StatefulPartitionedCall:", "StatefulPartitionedCall@__inference_signature_wrapper_461849"] at fused["StatefulPartitionedCall:", "StatefulPartitionedCall_1"]))): error: 'tf.Conv2D' op is neither a custom op nor a flex op
loc(callsite(fused["Sigmoid:", "functional_1_1/efficientnetv2-b0_1/block5e_expand_activation_1/Sigmoid@__inference_function_460362"] at callsite(fused["StatefulPartitionedCall:", "StatefulPartitionedCall@__inference_signature_wrapper_461849"] at fused["StatefulPartitionedCall:", "StatefulPartitionedCall_1"]))): error: 'tf.Sigmoid' op is neither a custom op nor a flex op
loc(callsite(fused["Mul:", "functional_1_1/efficientnetv2-b0_1/block5e_expand_activation_1/mul_1@__inference_function_460362"] at callsite(fused["StatefulPartitionedCall:", "StatefulPartitionedCall@__inference_signature_wrapper_461849"] at fused["StatefulPartitionedCall:", "StatefulPartitionedCall_1"]))): error: 'tf.Mul' op is neither a custom op nor a flex op
loc(callsite(fused["DepthwiseConv2dNative:", "functional_1_1/efficientnetv2-b0_1/block5e_dwconv2_1/depthwise@__inference_function_460362"] at callsite(fused["StatefulPartitionedCall:", "StatefulPartitionedCall@__inference_signature_wrapper_461849"] at fused["StatefulPartitionedCall:", "StatefulPartitionedCall_1"]))): error: 'tf.DepthwiseConv2dNative' op is neither a custom op nor a flex op
loc(callsite(fused["Sigmoid:", "functional_1_1/efficientnetv2-b0_1/block5e_activation_1/Sigmoid@__inference_function_460362"] at callsite(fused["StatefulPartitionedCall:", "StatefulPartitionedCall@__inference_signature_wrapper_461849"] at fused["StatefulPartitionedCall:", "StatefulPartitionedCall_1"]))): error: 'tf.Sigmoid' op is neither a custom op nor a flex op
loc(callsite(fused["Mul:", "functional_1_1/efficientnetv2-b0_1/block5e_activation_1/mul_1@__inference_function_460362"] at callsite(fused["StatefulPartitionedCall:", "StatefulPartitionedCall@__inference_signature_wrapper_461849"] at fused["StatefulPartitionedCall:", "StatefulPartitionedCall_1"]))): error: 'tf.Mul' op is neither a custom op nor a flex op
loc(callsite(fused["Conv2D:", "functional_1_1/efficientnetv2-b0_1/block5e_se_reduce_1/convolution@__inference_function_460362"] at callsite(fused["StatefulPartitionedCall:", "StatefulPartitionedCall@__inference_signature_wrapper_461849"] at fused["StatefulPartitionedCall:", "StatefulPartitionedCall_1"]))): error: 'tf.Conv2D' op is neither a custom op nor a flex op
loc(callsite(fused["BiasAdd:", "functional_1_1/efficientnetv2-b0_1/block5e_se_reduce_1/BiasAdd@__inference_function_460362"] at callsite(fused["StatefulPartitionedCall:", "StatefulPartitionedCall@__inference_signature_wrapper_461849"] at fused["StatefulPartitionedCall:", "StatefulPartitionedCall_1"]))): error: 'tf.BiasAdd' op is neither a custom op nor a flex op
loc(callsite(fused["Sigmoid:", "functional_1_1/efficientnetv2-b0_1/block5e_se_reduce_1/Sigmoid@__inference_function_460362"] at callsite(fused["StatefulPartitionedCall:", "StatefulPartitionedCall@__inference_signature_wrapper_461849"] at fused["StatefulPartitionedCall:", "StatefulPartitionedCall_1"]))): error: 'tf.Sigmoid' op is neither a custom op nor a flex op
loc(callsite(fused["Mul:", "functional_1_1/efficientnetv2-b0_1/block5e_se_reduce_1/mul_1@__inference_function_460362"] at callsite(fused["StatefulPartitionedCall:", "StatefulPartitionedCall@__inference_signature_wrapper_461849"] at fused["StatefulPartitionedCall:", "StatefulPartitionedCall_1"]))): error: 'tf.Mul' op is neither a custom op nor a flex op
loc(callsite(fused["Conv2D:", "functional_1_1/efficientnetv2-b0_1/block5e_se_expand_1/convolution@__inference_function_460362"] at callsite(fused["StatefulPartitionedCall:", "StatefulPartitionedCall@__inference_signature_wrapper_461849"] at fused["StatefulPartitionedCall:", "StatefulPartitionedCall_1"]))): error: 'tf.Conv2D' op is neither a custom op nor a flex op
loc(callsite(fused["BiasAdd:", "functional_1_1/efficientnetv2-b0_1/block5e_se_expand_1/BiasAdd@__inference_function_460362"] at callsite(fused["StatefulPartitionedCall:", "StatefulPartitionedCall@__inference_signature_wrapper_461849"] at fused["StatefulPartitionedCall:", "StatefulPartitionedCall_1"]))): error: 'tf.BiasAdd' op is neither a custom op nor a flex op
loc(callsite(fused["Sigmoid:", "functional_1_1/efficientnetv2-b0_1/block5e_se_expand_1/Sigmoid@__inference_function_460362"] at callsite(fused["StatefulPartitionedCall:", "StatefulPartitionedCall@__inference_signature_wrapper_461849"] at fused["StatefulPartitionedCall:", "StatefulPartitionedCall_1"]))): error: 'tf.Sigmoid' op is neither a custom op nor a flex op
loc(callsite(fused["Mul:", "functional_1_1/efficientnetv2-b0_1/block5e_se_excite_1/Mul@__inference_function_460362"] at callsite(fused["StatefulPartitionedCall:", "StatefulPartitionedCall@__inference_signature_wrapper_461849"] at fused["StatefulPartitionedCall:", "StatefulPartitionedCall_1"]))): error: 'tf.Mul' op is neither a custom op nor a flex op
loc(callsite(fused["Conv2D:", "functional_1_1/efficientnetv2-b0_1/block5e_project_conv_1/convolution@__inference_function_460362"] at callsite(fused["StatefulPartitionedCall:", "StatefulPartitionedCall@__inference_signature_wrapper_461849"] at fused["StatefulPartitionedCall:", "StatefulPartitionedCall_1"]))): error: 'tf.Conv2D' op is neither a custom op nor a flex op
loc(callsite(fused["AddV2:", "functional_1_1/efficientnetv2-b0_1/block5e_add_1/Add@__inference_function_460362"] at callsite(fused["StatefulPartitionedCall:", "StatefulPartitionedCall@__inference_signature_wrapper_461849"] at fused["StatefulPartitionedCall:", "StatefulPartitionedCall_1"]))): error: 'tf.AddV2' op is neither a customop nor a flex op
loc(callsite(fused["Conv2D:", "functional_1_1/efficientnetv2-b0_1/block6a_expand_conv_1/convolution@__inference_function_460362"] at callsite(fused["StatefulPartitionedCall:", "StatefulPartitionedCall@__inference_signature_wrapper_461849"] at fused["StatefulPartitionedCall:", "StatefulPartitionedCall_1"]))): error: 'tf.Conv2D' op is neither a custom op nor a flex op
loc(callsite(fused["Sigmoid:", "functional_1_1/efficientnetv2-b0_1/block6a_expand_activation_1/Sigmoid@__inference_function_460362"] at callsite(fused["StatefulPartitionedCall:", "StatefulPartitionedCall@__inference_signature_wrapper_461849"] at fused["StatefulPartitionedCall:", "StatefulPartitionedCall_1"]))): error: 'tf.Sigmoid' op is neither a custom op nor a flex op
loc(callsite(fused["Mul:", "functional_1_1/efficientnetv2-b0_1/block6a_expand_activation_1/mul_1@__inference_function_460362"] at callsite(fused["StatefulPartitionedCall:", "StatefulPartitionedCall@__inference_signature_wrapper_461849"] at fused["StatefulPartitionedCall:", "StatefulPartitionedCall_1"]))): error: 'tf.Mul' op is neither a custom op nor a flex op
loc(callsite(fused["DepthwiseConv2dNative:", "functional_1_1/efficientnetv2-b0_1/block6a_dwconv2_1/depthwise@__inference_function_460362"] at callsite(fused["StatefulPartitionedCall:", "StatefulPartitionedCall@__inference_signature_wrapper_461849"] at fused["StatefulPartitionedCall:", "StatefulPartitionedCall_1"]))): error: 'tf.DepthwiseConv2dNative' op is neither a custom op nor a flex op
loc(callsite(fused["Sigmoid:", "functional_1_1/efficientnetv2-b0_1/block6a_activation_1/Sigmoid@__inference_function_460362"] at callsite(fused["StatefulPartitionedCall:", "StatefulPartitionedCall@__inference_signature_wrapper_461849"] at fused["StatefulPartitionedCall:", "StatefulPartitionedCall_1"]))): error: 'tf.Sigmoid' op is neither a custom op nor a flex op
loc(callsite(fused["Mul:", "functional_1_1/efficientnetv2-b0_1/block6a_activation_1/mul_1@__inference_function_460362"] at callsite(fused["StatefulPartitionedCall:", "StatefulPartitionedCall@__inference_signature_wrapper_461849"] at fused["StatefulPartitionedCall:", "StatefulPartitionedCall_1"]))): error: 'tf.Mul' op is neither a custom op nor a flex op
loc(callsite(fused["Conv2D:", "functional_1_1/efficientnetv2-b0_1/block6a_se_reduce_1/convolution@__inference_function_460362"] at callsite(fused["StatefulPartitionedCall:", "StatefulPartitionedCall@__inference_signature_wrapper_461849"] at fused["StatefulPartitionedCall:", "StatefulPartitionedCall_1"]))): error: 'tf.Conv2D' op is neither a custom op nor a flex op
loc(callsite(fused["BiasAdd:", "functional_1_1/efficientnetv2-b0_1/block6a_se_reduce_1/BiasAdd@__inference_function_460362"] at callsite(fused["StatefulPartitionedCall:", "StatefulPartitionedCall@__inference_signature_wrapper_461849"] at fused["StatefulPartitionedCall:", "StatefulPartitionedCall_1"]))): error: 'tf.BiasAdd' op is neither a custom op nor a flex op
loc(callsite(fused["Sigmoid:", "functional_1_1/efficientnetv2-b0_1/block6a_se_reduce_1/Sigmoid@__inference_function_460362"] at callsite(fused["StatefulPartitionedCall:", "StatefulPartitionedCall@__inference_signature_wrapper_461849"] at fused["StatefulPartitionedCall:", "StatefulPartitionedCall_1"]))): error: 'tf.Sigmoid' op is neither a custom op nor a flex op
loc(callsite(fused["Mul:", "functional_1_1/efficientnetv2-b0_1/block6a_se_reduce_1/mul_1@__inference_function_460362"] at callsite(fused["StatefulPartitionedCall:", "StatefulPartitionedCall@__inference_signature_wrapper_461849"] at fused["StatefulPartitionedCall:", "StatefulPartitionedCall_1"]))): error: 'tf.Mul' op is neither a custom op nor a flex op
loc(callsite(fused["Conv2D:", "functional_1_1/efficientnetv2-b0_1/block6a_se_expand_1/convolution@__inference_function_460362"] at callsite(fused["StatefulPartitionedCall:", "StatefulPartitionedCall@__inference_signature_wrapper_461849"] at fused["StatefulPartitionedCall:", "StatefulPartitionedCall_1"]))): error: 'tf.Conv2D' op is neither a custom op nor a flex op
loc(callsite(fused["BiasAdd:", "functional_1_1/efficientnetv2-b0_1/block6a_se_expand_1/BiasAdd@__inference_function_460362"] at callsite(fused["StatefulPartitionedCall:", "StatefulPartitionedCall@__inference_signature_wrapper_461849"] at fused["StatefulPartitionedCall:", "StatefulPartitionedCall_1"]))): error: 'tf.BiasAdd' op is neither a custom op nor a flex op
loc(callsite(fused["Sigmoid:", "functional_1_1/efficientnetv2-b0_1/block6a_se_expand_1/Sigmoid@__inference_function_460362"] at callsite(fused["StatefulPartitionedCall:", "StatefulPartitionedCall@__inference_signature_wrapper_461849"] at fused["StatefulPartitionedCall:", "StatefulPartitionedCall_1"]))): error: 'tf.Sigmoid' op is neither a custom op nor a flex op
loc(callsite(fused["Mul:", "functional_1_1/efficientnetv2-b0_1/block6a_se_excite_1/Mul@__inference_function_460362"] at callsite(fused["StatefulPartitionedCall:", "StatefulPartitionedCall@__inference_signature_wrapper_461849"] at fused["StatefulPartitionedCall:", "StatefulPartitionedCall_1"]))): error: 'tf.Mul' op is neither a custom op nor a flex op
loc(callsite(fused["Conv2D:", "functional_1_1/efficientnetv2-b0_1/block6a_project_conv_1/convolution@__inference_function_460362"] at callsite(fused["StatefulPartitionedCall:", "StatefulPartitionedCall@__inference_signature_wrapper_461849"] at fused["StatefulPartitionedCall:", "StatefulPartitionedCall_1"]))): error: 'tf.Conv2D' op is neither a custom op nor a flex op
loc(callsite(fused["Conv2D:", "functional_1_1/efficientnetv2-b0_1/block6b_expand_conv_1/convolution@__inference_function_460362"] at callsite(fused["StatefulPartitionedCall:", "StatefulPartitionedCall@__inference_signature_wrapper_461849"] at fused["StatefulPartitionedCall:", "StatefulPartitionedCall_1"]))): error: 'tf.Conv2D' op is neither a custom op nor a flex op
loc(callsite(fused["Sigmoid:", "functional_1_1/efficientnetv2-b0_1/block6b_expand_activation_1/Sigmoid@__inference_function_460362"] at callsite(fused["StatefulPartitionedCall:", "StatefulPartitionedCall@__inference_signature_wrapper_461849"] at fused["StatefulPartitionedCall:", "StatefulPartitionedCall_1"]))): error: 'tf.Sigmoid' op is neither a custom op nor a flex op
loc(callsite(fused["Mul:", "functional_1_1/efficientnetv2-b0_1/block6b_expand_activation_1/mul_1@__inference_function_460362"] at callsite(fused["StatefulPartitionedCall:", "StatefulPartitionedCall@__inference_signature_wrapper_461849"] at fused["StatefulPartitionedCall:", "StatefulPartitionedCall_1"]))): error: 'tf.Mul' op is neither a custom op nor a flex op
loc(callsite(fused["DepthwiseConv2dNative:", "functional_1_1/efficientnetv2-b0_1/block6b_dwconv2_1/depthwise@__inference_function_460362"] at callsite(fused["StatefulPartitionedCall:", "StatefulPartitionedCall@__inference_signature_wrapper_461849"] at fused["StatefulPartitionedCall:", "StatefulPartitionedCall_1"]))): error: 'tf.DepthwiseConv2dNative' op is neither a custom op nor a flex op
loc(callsite(fused["Sigmoid:", "functional_1_1/efficientnetv2-b0_1/block6b_activation_1/Sigmoid@__inference_function_460362"] at callsite(fused["StatefulPartitionedCall:", "StatefulPartitionedCall@__inference_signature_wrapper_461849"] at fused["StatefulPartitionedCall:", "StatefulPartitionedCall_1"]))): error: 'tf.Sigmoid' op is neither a custom op nor a flex op
loc(callsite(fused["Mul:", "functional_1_1/efficientnetv2-b0_1/block6b_activation_1/mul_1@__inference_function_460362"] at callsite(fused["StatefulPartitionedCall:", "StatefulPartitionedCall@__inference_signature_wrapper_461849"] at fused["StatefulPartitionedCall:", "StatefulPartitionedCall_1"]))): error: 'tf.Mul' op is neither a custom op nor a flex op
loc(callsite(fused["Conv2D:", "functional_1_1/efficientnetv2-b0_1/block6b_se_reduce_1/convolution@__inference_function_460362"] at callsite(fused["StatefulPartitionedCall:", "StatefulPartitionedCall@__inference_signature_wrapper_461849"] at fused["StatefulPartitionedCall:", "StatefulPartitionedCall_1"]))): error: 'tf.Conv2D' op is neither a custom op nor a flex op
loc(callsite(fused["BiasAdd:", "functional_1_1/efficientnetv2-b0_1/block6b_se_reduce_1/BiasAdd@__inference_function_460362"] at callsite(fused["StatefulPartitionedCall:", "StatefulPartitionedCall@__inference_signature_wrapper_461849"] at fused["StatefulPartitionedCall:", "StatefulPartitionedCall_1"]))): error: 'tf.BiasAdd' op is neither a custom op nor a flex op
loc(callsite(fused["Sigmoid:", "functional_1_1/efficientnetv2-b0_1/block6b_se_reduce_1/Sigmoid@__inference_function_460362"] at callsite(fused["StatefulPartitionedCall:", "StatefulPartitionedCall@__inference_signature_wrapper_461849"] at fused["StatefulPartitionedCall:", "StatefulPartitionedCall_1"]))): error: 'tf.Sigmoid' op is neither a custom op nor a flex op
loc(callsite(fused["Mul:", "functional_1_1/efficientnetv2-b0_1/block6b_se_reduce_1/mul_1@__inference_function_460362"] at callsite(fused["StatefulPartitionedCall:", "StatefulPartitionedCall@__inference_signature_wrapper_461849"] at fused["StatefulPartitionedCall:", "StatefulPartitionedCall_1"]))): error: 'tf.Mul' op is neither a custom op nor a flex op
loc(callsite(fused["Conv2D:", "functional_1_1/efficientnetv2-b0_1/block6b_se_expand_1/convolution@__inference_function_460362"] at callsite(fused["StatefulPartitionedCall:", "StatefulPartitionedCall@__inference_signature_wrapper_461849"] at fused["StatefulPartitionedCall:", "StatefulPartitionedCall_1"]))): error: 'tf.Conv2D' op is neither a custom op nor a flex op
loc(callsite(fused["BiasAdd:", "functional_1_1/efficientnetv2-b0_1/block6b_se_expand_1/BiasAdd@__inference_function_460362"] at callsite(fused["StatefulPartitionedCall:", "StatefulPartitionedCall@__inference_signature_wrapper_461849"] at fused["StatefulPartitionedCall:", "StatefulPartitionedCall_1"]))): error: 'tf.BiasAdd' op is neither a custom op nor a flex op
loc(callsite(fused["Sigmoid:", "functional_1_1/efficientnetv2-b0_1/block6b_se_expand_1/Sigmoid@__inference_function_460362"] at callsite(fused["StatefulPartitionedCall:", "StatefulPartitionedCall@__inference_signature_wrapper_461849"] at fused["StatefulPartitionedCall:", "StatefulPartitionedCall_1"]))): error: 'tf.Sigmoid' op is neither a custom op nor a flex op
loc(callsite(fused["Mul:", "functional_1_1/efficientnetv2-b0_1/block6b_se_excite_1/Mul@__inference_function_460362"] at callsite(fused["StatefulPartitionedCall:", "StatefulPartitionedCall@__inference_signature_wrapper_461849"] at fused["StatefulPartitionedCall:", "StatefulPartitionedCall_1"]))): error: 'tf.Mul' op is neither a custom op nor a flex op
loc(callsite(fused["Conv2D:", "functional_1_1/efficientnetv2-b0_1/block6b_project_conv_1/convolution@__inference_function_460362"] at callsite(fused["StatefulPartitionedCall:", "StatefulPartitionedCall@__inference_signature_wrapper_461849"] at fused["StatefulPartitionedCall:", "StatefulPartitionedCall_1"]))): error: 'tf.Conv2D' op is neither a custom op nor a flex op
loc(callsite(fused["AddV2:", "functional_1_1/efficientnetv2-b0_1/block6b_add_1/Add@__inference_function_460362"] at callsite(fused["StatefulPartitionedCall:", "StatefulPartitionedCall@__inference_signature_wrapper_461849"] at fused["StatefulPartitionedCall:", "StatefulPartitionedCall_1"]))): error: 'tf.AddV2' op is neither a customop nor a flex op
loc(callsite(fused["Conv2D:", "functional_1_1/efficientnetv2-b0_1/block6c_expand_conv_1/convolution@__inference_function_460362"] at callsite(fused["StatefulPartitionedCall:", "StatefulPartitionedCall@__inference_signature_wrapper_461849"] at fused["StatefulPartitionedCall:", "StatefulPartitionedCall_1"]))): error: 'tf.Conv2D' op is neither a custom op nor a flex op
loc(callsite(fused["Sigmoid:", "functional_1_1/efficientnetv2-b0_1/block6c_expand_activation_1/Sigmoid@__inference_function_460362"] at callsite(fused["StatefulPartitionedCall:", "StatefulPartitionedCall@__inference_signature_wrapper_461849"] at fused["StatefulPartitionedCall:", "StatefulPartitionedCall_1"]))): error: 'tf.Sigmoid' op is neither a custom op nor a flex op
loc(callsite(fused["Mul:", "functional_1_1/efficientnetv2-b0_1/block6c_expand_activation_1/mul_1@__inference_function_460362"] at callsite(fused["StatefulPartitionedCall:", "StatefulPartitionedCall@__inference_signature_wrapper_461849"] at fused["StatefulPartitionedCall:", "StatefulPartitionedCall_1"]))): error: 'tf.Mul' op is neither a custom op nor a flex op
loc(callsite(fused["DepthwiseConv2dNative:", "functional_1_1/efficientnetv2-b0_1/block6c_dwconv2_1/depthwise@__inference_function_460362"] at callsite(fused["StatefulPartitionedCall:", "StatefulPartitionedCall@__inference_signature_wrapper_461849"] at fused["StatefulPartitionedCall:", "StatefulPartitionedCall_1"]))): error: 'tf.DepthwiseConv2dNative' op is neither a custom op nor a flex op
loc(callsite(fused["Sigmoid:", "functional_1_1/efficientnetv2-b0_1/block6c_activation_1/Sigmoid@__inference_function_460362"] at callsite(fused["StatefulPartitionedCall:", "StatefulPartitionedCall@__inference_signature_wrapper_461849"] at fused["StatefulPartitionedCall:", "StatefulPartitionedCall_1"]))): error: 'tf.Sigmoid' op is neither a custom op nor a flex op
loc(callsite(fused["Mul:", "functional_1_1/efficientnetv2-b0_1/block6c_activation_1/mul_1@__inference_function_460362"] at callsite(fused["StatefulPartitionedCall:", "StatefulPartitionedCall@__inference_signature_wrapper_461849"] at fused["StatefulPartitionedCall:", "StatefulPartitionedCall_1"]))): error: 'tf.Mul' op is neither a custom op nor a flex op
loc(callsite(fused["Conv2D:", "functional_1_1/efficientnetv2-b0_1/block6c_se_reduce_1/convolution@__inference_function_460362"] at callsite(fused["StatefulPartitionedCall:", "StatefulPartitionedCall@__inference_signature_wrapper_461849"] at fused["StatefulPartitionedCall:", "StatefulPartitionedCall_1"]))): error: 'tf.Conv2D' op is neither a custom op nor a flex op
loc(callsite(fused["BiasAdd:", "functional_1_1/efficientnetv2-b0_1/block6c_se_reduce_1/BiasAdd@__inference_function_460362"] at callsite(fused["StatefulPartitionedCall:", "StatefulPartitionedCall@__inference_signature_wrapper_461849"] at fused["StatefulPartitionedCall:", "StatefulPartitionedCall_1"]))): error: 'tf.BiasAdd' op is neither a custom op nor a flex op
loc(callsite(fused["Sigmoid:", "functional_1_1/efficientnetv2-b0_1/block6c_se_reduce_1/Sigmoid@__inference_function_460362"] at callsite(fused["StatefulPartitionedCall:", "StatefulPartitionedCall@__inference_signature_wrapper_461849"] at fused["StatefulPartitionedCall:", "StatefulPartitionedCall_1"]))): error: 'tf.Sigmoid' op is neither a custom op nor a flex op
loc(callsite(fused["Mul:", "functional_1_1/efficientnetv2-b0_1/block6c_se_reduce_1/mul_1@__inference_function_460362"] at callsite(fused["StatefulPartitionedCall:", "StatefulPartitionedCall@__inference_signature_wrapper_461849"] at fused["StatefulPartitionedCall:", "StatefulPartitionedCall_1"]))): error: 'tf.Mul' op is neither a custom op nor a flex op
loc(callsite(fused["Conv2D:", "functional_1_1/efficientnetv2-b0_1/block6c_se_expand_1/convolution@__inference_function_460362"] at callsite(fused["StatefulPartitionedCall:", "StatefulPartitionedCall@__inference_signature_wrapper_461849"] at fused["StatefulPartitionedCall:", "StatefulPartitionedCall_1"]))): error: 'tf.Conv2D' op is neither a custom op nor a flex op
loc(callsite(fused["BiasAdd:", "functional_1_1/efficientnetv2-b0_1/block6c_se_expand_1/BiasAdd@__inference_function_460362"] at callsite(fused["StatefulPartitionedCall:", "StatefulPartitionedCall@__inference_signature_wrapper_461849"] at fused["StatefulPartitionedCall:", "StatefulPartitionedCall_1"]))): error: 'tf.BiasAdd' op is neither a custom op nor a flex op
loc(callsite(fused["Sigmoid:", "functional_1_1/efficientnetv2-b0_1/block6c_se_expand_1/Sigmoid@__inference_function_460362"] at callsite(fused["StatefulPartitionedCall:", "StatefulPartitionedCall@__inference_signature_wrapper_461849"] at fused["StatefulPartitionedCall:", "StatefulPartitionedCall_1"]))): error: 'tf.Sigmoid' op is neither a custom op nor a flex op
loc(callsite(fused["Mul:", "functional_1_1/efficientnetv2-b0_1/block6c_se_excite_1/Mul@__inference_function_460362"] at callsite(fused["StatefulPartitionedCall:", "StatefulPartitionedCall@__inference_signature_wrapper_461849"] at fused["StatefulPartitionedCall:", "StatefulPartitionedCall_1"]))): error: 'tf.Mul' op is neither a custom op nor a flex op
loc(callsite(fused["Conv2D:", "functional_1_1/efficientnetv2-b0_1/block6c_project_conv_1/convolution@__inference_function_460362"] at callsite(fused["StatefulPartitionedCall:", "StatefulPartitionedCall@__inference_signature_wrapper_461849"] at fused["StatefulPartitionedCall:", "StatefulPartitionedCall_1"]))): error: 'tf.Conv2D' op is neither a custom op nor a flex op
loc(callsite(fused["AddV2:", "functional_1_1/efficientnetv2-b0_1/block6c_add_1/Add@__inference_function_460362"] at callsite(fused["StatefulPartitionedCall:", "StatefulPartitionedCall@__inference_signature_wrapper_461849"] at fused["StatefulPartitionedCall:", "StatefulPartitionedCall_1"]))): error: 'tf.AddV2' op is neither a customop nor a flex op
loc(callsite(fused["Conv2D:", "functional_1_1/efficientnetv2-b0_1/block6d_expand_conv_1/convolution@__inference_function_460362"] at callsite(fused["StatefulPartitionedCall:", "StatefulPartitionedCall@__inference_signature_wrapper_461849"] at fused["StatefulPartitionedCall:", "StatefulPartitionedCall_1"]))): error: 'tf.Conv2D' op is neither a custom op nor a flex op
loc(callsite(fused["Sigmoid:", "functional_1_1/efficientnetv2-b0_1/block6d_expand_activation_1/Sigmoid@__inference_function_460362"] at callsite(fused["StatefulPartitionedCall:", "StatefulPartitionedCall@__inference_signature_wrapper_461849"] at fused["StatefulPartitionedCall:", "StatefulPartitionedCall_1"]))): error: 'tf.Sigmoid' op is neither a custom op nor a flex op
loc(callsite(fused["Mul:", "functional_1_1/efficientnetv2-b0_1/block6d_expand_activation_1/mul_1@__inference_function_460362"] at callsite(fused["StatefulPartitionedCall:", "StatefulPartitionedCall@__inference_signature_wrapper_461849"] at fused["StatefulPartitionedCall:", "StatefulPartitionedCall_1"]))): error: 'tf.Mul' op is neither a custom op nor a flex op
loc(callsite(fused["DepthwiseConv2dNative:", "functional_1_1/efficientnetv2-b0_1/block6d_dwconv2_1/depthwise@__inference_function_460362"] at callsite(fused["StatefulPartitionedCall:", "StatefulPartitionedCall@__inference_signature_wrapper_461849"] at fused["StatefulPartitionedCall:", "StatefulPartitionedCall_1"]))): error: 'tf.DepthwiseConv2dNative' op is neither a custom op nor a flex op
loc(callsite(fused["Sigmoid:", "functional_1_1/efficientnetv2-b0_1/block6d_activation_1/Sigmoid@__inference_function_460362"] at callsite(fused["StatefulPartitionedCall:", "StatefulPartitionedCall@__inference_signature_wrapper_461849"] at fused["StatefulPartitionedCall:", "StatefulPartitionedCall_1"]))): error: 'tf.Sigmoid' op is neither a custom op nor a flex op
loc(callsite(fused["Mul:", "functional_1_1/efficientnetv2-b0_1/block6d_activation_1/mul_1@__inference_function_460362"] at callsite(fused["StatefulPartitionedCall:", "StatefulPartitionedCall@__inference_signature_wrapper_461849"] at fused["StatefulPartitionedCall:", "StatefulPartitionedCall_1"]))): error: 'tf.Mul' op is neither a custom op nor a flex op
loc(callsite(fused["Conv2D:", "functional_1_1/efficientnetv2-b0_1/block6d_se_reduce_1/convolution@__inference_function_460362"] at callsite(fused["StatefulPartitionedCall:", "StatefulPartitionedCall@__inference_signature_wrapper_461849"] at fused["StatefulPartitionedCall:", "StatefulPartitionedCall_1"]))): error: 'tf.Conv2D' op is neither a custom op nor a flex op
loc(callsite(fused["BiasAdd:", "functional_1_1/efficientnetv2-b0_1/block6d_se_reduce_1/BiasAdd@__inference_function_460362"] at callsite(fused["StatefulPartitionedCall:", "StatefulPartitionedCall@__inference_signature_wrapper_461849"] at fused["StatefulPartitionedCall:", "StatefulPartitionedCall_1"]))): error: 'tf.BiasAdd' op is neither a custom op nor a flex op
loc(callsite(fused["Sigmoid:", "functional_1_1/efficientnetv2-b0_1/block6d_se_reduce_1/Sigmoid@__inference_function_460362"] at callsite(fused["StatefulPartitionedCall:", "StatefulPartitionedCall@__inference_signature_wrapper_461849"] at fused["StatefulPartitionedCall:", "StatefulPartitionedCall_1"]))): error: 'tf.Sigmoid' op is neither a custom op nor a flex op
loc(callsite(fused["Mul:", "functional_1_1/efficientnetv2-b0_1/block6d_se_reduce_1/mul_1@__inference_function_460362"] at callsite(fused["StatefulPartitionedCall:", "StatefulPartitionedCall@__inference_signature_wrapper_461849"] at fused["StatefulPartitionedCall:", "StatefulPartitionedCall_1"]))): error: 'tf.Mul' op is neither a custom op nor a flex op
loc(callsite(fused["Conv2D:", "functional_1_1/efficientnetv2-b0_1/block6d_se_expand_1/convolution@__inference_function_460362"] at callsite(fused["StatefulPartitionedCall:", "StatefulPartitionedCall@__inference_signature_wrapper_461849"] at fused["StatefulPartitionedCall:", "StatefulPartitionedCall_1"]))): error: 'tf.Conv2D' op is neither a custom op nor a flex op
loc(callsite(fused["BiasAdd:", "functional_1_1/efficientnetv2-b0_1/block6d_se_expand_1/BiasAdd@__inference_function_460362"] at callsite(fused["StatefulPartitionedCall:", "StatefulPartitionedCall@__inference_signature_wrapper_461849"] at fused["StatefulPartitionedCall:", "StatefulPartitionedCall_1"]))): error: 'tf.BiasAdd' op is neither a custom op nor a flex op
loc(callsite(fused["Sigmoid:", "functional_1_1/efficientnetv2-b0_1/block6d_se_expand_1/Sigmoid@__inference_function_460362"] at callsite(fused["StatefulPartitionedCall:", "StatefulPartitionedCall@__inference_signature_wrapper_461849"] at fused["StatefulPartitionedCall:", "StatefulPartitionedCall_1"]))): error: 'tf.Sigmoid' op is neither a custom op nor a flex op
loc(callsite(fused["Mul:", "functional_1_1/efficientnetv2-b0_1/block6d_se_excite_1/Mul@__inference_function_460362"] at callsite(fused["StatefulPartitionedCall:", "StatefulPartitionedCall@__inference_signature_wrapper_461849"] at fused["StatefulPartitionedCall:", "StatefulPartitionedCall_1"]))): error: 'tf.Mul' op is neither a custom op nor a flex op
loc(callsite(fused["Conv2D:", "functional_1_1/efficientnetv2-b0_1/block6d_project_conv_1/convolution@__inference_function_460362"] at callsite(fused["StatefulPartitionedCall:", "StatefulPartitionedCall@__inference_signature_wrapper_461849"] at fused["StatefulPartitionedCall:", "StatefulPartitionedCall_1"]))): error: 'tf.Conv2D' op is neither a custom op nor a flex op
loc(callsite(fused["AddV2:", "functional_1_1/efficientnetv2-b0_1/block6d_add_1/Add@__inference_function_460362"] at callsite(fused["StatefulPartitionedCall:", "StatefulPartitionedCall@__inference_signature_wrapper_461849"] at fused["StatefulPartitionedCall:", "StatefulPartitionedCall_1"]))): error: 'tf.AddV2' op is neither a customop nor a flex op
loc(callsite(fused["Conv2D:", "functional_1_1/efficientnetv2-b0_1/block6e_expand_conv_1/convolution@__inference_function_460362"] at callsite(fused["StatefulPartitionedCall:", "StatefulPartitionedCall@__inference_signature_wrapper_461849"] at fused["StatefulPartitionedCall:", "StatefulPartitionedCall_1"]))): error: 'tf.Conv2D' op is neither a custom op nor a flex op
loc(callsite(fused["Sigmoid:", "functional_1_1/efficientnetv2-b0_1/block6e_expand_activation_1/Sigmoid@__inference_function_460362"] at callsite(fused["StatefulPartitionedCall:", "StatefulPartitionedCall@__inference_signature_wrapper_461849"] at fused["StatefulPartitionedCall:", "StatefulPartitionedCall_1"]))): error: 'tf.Sigmoid' op is neither a custom op nor a flex op
loc(callsite(fused["Mul:", "functional_1_1/efficientnetv2-b0_1/block6e_expand_activation_1/mul_1@__inference_function_460362"] at callsite(fused["StatefulPartitionedCall:", "StatefulPartitionedCall@__inference_signature_wrapper_461849"] at fused["StatefulPartitionedCall:", "StatefulPartitionedCall_1"]))): error: 'tf.Mul' op is neither a custom op nor a flex op
loc(callsite(fused["DepthwiseConv2dNative:", "functional_1_1/efficientnetv2-b0_1/block6e_dwconv2_1/depthwise@__inference_function_460362"] at callsite(fused["StatefulPartitionedCall:", "StatefulPartitionedCall@__inference_signature_wrapper_461849"] at fused["StatefulPartitionedCall:", "StatefulPartitionedCall_1"]))): error: 'tf.DepthwiseConv2dNative' op is neither a custom op nor a flex op
loc(callsite(fused["Sigmoid:", "functional_1_1/efficientnetv2-b0_1/block6e_activation_1/Sigmoid@__inference_function_460362"] at callsite(fused["StatefulPartitionedCall:", "StatefulPartitionedCall@__inference_signature_wrapper_461849"] at fused["StatefulPartitionedCall:", "StatefulPartitionedCall_1"]))): error: 'tf.Sigmoid' op is neither a custom op nor a flex op
loc(callsite(fused["Mul:", "functional_1_1/efficientnetv2-b0_1/block6e_activation_1/mul_1@__inference_function_460362"] at callsite(fused["StatefulPartitionedCall:", "StatefulPartitionedCall@__inference_signature_wrapper_461849"] at fused["StatefulPartitionedCall:", "StatefulPartitionedCall_1"]))): error: 'tf.Mul' op is neither a custom op nor a flex op
loc(callsite(fused["Conv2D:", "functional_1_1/efficientnetv2-b0_1/block6e_se_reduce_1/convolution@__inference_function_460362"] at callsite(fused["StatefulPartitionedCall:", "StatefulPartitionedCall@__inference_signature_wrapper_461849"] at fused["StatefulPartitionedCall:", "StatefulPartitionedCall_1"]))): error: 'tf.Conv2D' op is neither a custom op nor a flex op
loc(callsite(fused["BiasAdd:", "functional_1_1/efficientnetv2-b0_1/block6e_se_reduce_1/BiasAdd@__inference_function_460362"] at callsite(fused["StatefulPartitionedCall:", "StatefulPartitionedCall@__inference_signature_wrapper_461849"] at fused["StatefulPartitionedCall:", "StatefulPartitionedCall_1"]))): error: 'tf.BiasAdd' op is neither a custom op nor a flex op
loc(callsite(fused["Sigmoid:", "functional_1_1/efficientnetv2-b0_1/block6e_se_reduce_1/Sigmoid@__inference_function_460362"] at callsite(fused["StatefulPartitionedCall:", "StatefulPartitionedCall@__inference_signature_wrapper_461849"] at fused["StatefulPartitionedCall:", "StatefulPartitionedCall_1"]))): error: 'tf.Sigmoid' op is neither a custom op nor a flex op
loc(callsite(fused["Mul:", "functional_1_1/efficientnetv2-b0_1/block6e_se_reduce_1/mul_1@__inference_function_460362"] at callsite(fused["StatefulPartitionedCall:", "StatefulPartitionedCall@__inference_signature_wrapper_461849"] at fused["StatefulPartitionedCall:", "StatefulPartitionedCall_1"]))): error: 'tf.Mul' op is neither a custom op nor a flex op
loc(callsite(fused["Conv2D:", "functional_1_1/efficientnetv2-b0_1/block6e_se_expand_1/convolution@__inference_function_460362"] at callsite(fused["StatefulPartitionedCall:", "StatefulPartitionedCall@__inference_signature_wrapper_461849"] at fused["StatefulPartitionedCall:", "StatefulPartitionedCall_1"]))): error: 'tf.Conv2D' op is neither a custom op nor a flex op
loc(callsite(fused["BiasAdd:", "functional_1_1/efficientnetv2-b0_1/block6e_se_expand_1/BiasAdd@__inference_function_460362"] at callsite(fused["StatefulPartitionedCall:", "StatefulPartitionedCall@__inference_signature_wrapper_461849"] at fused["StatefulPartitionedCall:", "StatefulPartitionedCall_1"]))): error: 'tf.BiasAdd' op is neither a custom op nor a flex op
loc(callsite(fused["Sigmoid:", "functional_1_1/efficientnetv2-b0_1/block6e_se_expand_1/Sigmoid@__inference_function_460362"] at callsite(fused["StatefulPartitionedCall:", "StatefulPartitionedCall@__inference_signature_wrapper_461849"] at fused["StatefulPartitionedCall:", "StatefulPartitionedCall_1"]))): error: 'tf.Sigmoid' op is neither a custom op nor a flex op
loc(callsite(fused["Mul:", "functional_1_1/efficientnetv2-b0_1/block6e_se_excite_1/Mul@__inference_function_460362"] at callsite(fused["StatefulPartitionedCall:", "StatefulPartitionedCall@__inference_signature_wrapper_461849"] at fused["StatefulPartitionedCall:", "StatefulPartitionedCall_1"]))): error: 'tf.Mul' op is neither a custom op nor a flex op
loc(callsite(fused["Conv2D:", "functional_1_1/efficientnetv2-b0_1/block6e_project_conv_1/convolution@__inference_function_460362"] at callsite(fused["StatefulPartitionedCall:", "StatefulPartitionedCall@__inference_signature_wrapper_461849"] at fused["StatefulPartitionedCall:", "StatefulPartitionedCall_1"]))): error: 'tf.Conv2D' op is neither a custom op nor a flex op
loc(callsite(fused["AddV2:", "functional_1_1/efficientnetv2-b0_1/block6e_add_1/Add@__inference_function_460362"] at callsite(fused["StatefulPartitionedCall:", "StatefulPartitionedCall@__inference_signature_wrapper_461849"] at fused["StatefulPartitionedCall:", "StatefulPartitionedCall_1"]))): error: 'tf.AddV2' op is neither a customop nor a flex op
loc(callsite(fused["Conv2D:", "functional_1_1/efficientnetv2-b0_1/block6f_expand_conv_1/convolution@__inference_function_460362"] at callsite(fused["StatefulPartitionedCall:", "StatefulPartitionedCall@__inference_signature_wrapper_461849"] at fused["StatefulPartitionedCall:", "StatefulPartitionedCall_1"]))): error: 'tf.Conv2D' op is neither a custom op nor a flex op
loc(callsite(fused["Sigmoid:", "functional_1_1/efficientnetv2-b0_1/block6f_expand_activation_1/Sigmoid@__inference_function_460362"] at callsite(fused["StatefulPartitionedCall:", "StatefulPartitionedCall@__inference_signature_wrapper_461849"] at fused["StatefulPartitionedCall:", "StatefulPartitionedCall_1"]))): error: 'tf.Sigmoid' op is neither a custom op nor a flex op
loc(callsite(fused["Mul:", "functional_1_1/efficientnetv2-b0_1/block6f_expand_activation_1/mul_1@__inference_function_460362"] at callsite(fused["StatefulPartitionedCall:", "StatefulPartitionedCall@__inference_signature_wrapper_461849"] at fused["StatefulPartitionedCall:", "StatefulPartitionedCall_1"]))): error: 'tf.Mul' op is neither a custom op nor a flex op
loc(callsite(fused["DepthwiseConv2dNative:", "functional_1_1/efficientnetv2-b0_1/block6f_dwconv2_1/depthwise@__inference_function_460362"] at callsite(fused["StatefulPartitionedCall:", "StatefulPartitionedCall@__inference_signature_wrapper_461849"] at fused["StatefulPartitionedCall:", "StatefulPartitionedCall_1"]))): error: 'tf.DepthwiseConv2dNative' op is neither a custom op nor a flex op
loc(callsite(fused["Sigmoid:", "functional_1_1/efficientnetv2-b0_1/block6f_activation_1/Sigmoid@__inference_function_460362"] at callsite(fused["StatefulPartitionedCall:", "StatefulPartitionedCall@__inference_signature_wrapper_461849"] at fused["StatefulPartitionedCall:", "StatefulPartitionedCall_1"]))): error: 'tf.Sigmoid' op is neither a custom op nor a flex op
loc(callsite(fused["Mul:", "functional_1_1/efficientnetv2-b0_1/block6f_activation_1/mul_1@__inference_function_460362"] at callsite(fused["StatefulPartitionedCall:", "StatefulPartitionedCall@__inference_signature_wrapper_461849"] at fused["StatefulPartitionedCall:", "StatefulPartitionedCall_1"]))): error: 'tf.Mul' op is neither a custom op nor a flex op
loc(callsite(fused["Conv2D:", "functional_1_1/efficientnetv2-b0_1/block6f_se_reduce_1/convolution@__inference_function_460362"] at callsite(fused["StatefulPartitionedCall:", "StatefulPartitionedCall@__inference_signature_wrapper_461849"] at fused["StatefulPartitionedCall:", "StatefulPartitionedCall_1"]))): error: 'tf.Conv2D' op is neither a custom op nor a flex op
loc(callsite(fused["BiasAdd:", "functional_1_1/efficientnetv2-b0_1/block6f_se_reduce_1/BiasAdd@__inference_function_460362"] at callsite(fused["StatefulPartitionedCall:", "StatefulPartitionedCall@__inference_signature_wrapper_461849"] at fused["StatefulPartitionedCall:", "StatefulPartitionedCall_1"]))): error: 'tf.BiasAdd' op is neither a custom op nor a flex op
…
  %538 = "tfl.add"(%537, %126) <{fused_activation_function = "NONE"}> : (tensor<?x14x14x672xf32>, tensor<1x1x1x672xf32>) -> tensor<?x14x14x672xf32>
  %539 = "tfl.cast"(%538) : (tensor<?x14x14x672xf32>) -> tensor<?x14x14x672xf16>
  %540 = "tf.Sigmoid"(%539) {device = ""} : (tensor<?x14x14x672xf16>) -> tensor<?x14x14x672xf16>
  %541 = "tf.Mul"(%539, %540) {device = ""} : (tensor<?x14x14x672xf16>, tensor<?x14x14x672xf16>) -> tensor<?x14x14x672xf16>
  %542 = "tf.DepthwiseConv2dNative"(%541, %128) <{data_format = "NHWC", dilations = [1, 1, 1, 1], explicit_paddings = [], padding = "SAME", strides = [1, 1, 1, 1]}> {device = ""} : (tensor<?x14x14x672xf16>, tensor<3x3x672x1xf16>) -> tensor<?x14x14x672xf16>
  %543 = "tfl.cast"(%542) : (tensor<?x14x14x672xf16>) -> tensor<?x14x14x672xf32>
  %544 = "tfl.mul"(%543, %130) <{fused_activation_function = "NONE"}> : (tensor<?x14x14x672xf32>, tensor<1x1x1x672xf32>) -> tensor<?x14x14x672xf32>
  %545 = "tfl.add"(%544, %129) <{fused_activation_function = "NONE"}> : (tensor<?x14x14x672xf32>, tensor<1x1x1x672xf32>) -> tensor<?x14x14x672xf32>
  %546 = "tfl.cast"(%545) : (tensor<?x14x14x672xf32>) -> tensor<?x14x14x672xf16>
  %547 = "tf.Sigmoid"(%546) {device = ""} : (tensor<?x14x14x672xf16>) -> tensor<?x14x14x672xf16>
  %548 = "tf.Mul"(%546, %547) {device = ""} : (tensor<?x14x14x672xf16>, tensor<?x14x14x672xf16>) -> tensor<?x14x14x672xf16>
  %549 = "tfl.cast"(%548) : (tensor<?x14x14x672xf16>) -> tensor<?x14x14x672xf32>
  %550 = "tfl.mean"(%549, %244) <{keep_dims = false}> : (tensor<?x14x14x672xf32>, tensor<2xi32>) -> tensor<?x672xf32>
  %551 = "tfl.cast"(%550) : (tensor<?x672xf32>) -> tensor<?x672xf16>
  %552 = "tfl.shape"(%551) : (tensor<?x672xf16>) -> tensor<2xi32>
  %553 = "tfl.strided_slice"(%552, %242, %243, %243) <{begin_mask = 0 : i32, ellipsis_mask = 0 : i32, end_mask = 0 : i32, new_axis_mask = 0 : i32, offset = false, shrink_axis_mask = 1 : i32}> : (tensor<2xi32>, tensor<1xi32>, tensor<1xi32>, tensor<1xi32>) -> tensor<i32>
  %554 = "tfl.pack"(%553, %240, %240, %247) <{axis = 0 : i32, values_count = 4 : i32}> : (tensor<i32>, tensor<i32>, tensor<i32>, tensor<i32>) -> tensor<4xi32>
  %555 = "tfl.reshape"(%551, %554) : (tensor<?x672xf16>, tensor<4xi32>) -> tensor<?x1x1x672xf16>
  %556 = "tf.Conv2D"(%555, %119) <{data_format = "NHWC", dilations = [1, 1, 1, 1], explicit_paddings = [], padding = "SAME", strides = [1, 1, 1, 1], use_cudnn_on_gpu = true}> {device = ""} : (tensor<?x1x1x672xf16>, tensor<1x1x672x28xf16>) -> tensor<?x1x1x28xf16>
  %557 = "tf.BiasAdd"(%556, %118) <{data_format = "NHWC"}> {device = ""} : (tensor<?x1x1x28xf16>, tensor<28xf16>) -> tensor<?x1x1x28xf16>
  %558 = "tf.Sigmoid"(%557) {device = ""} : (tensor<?x1x1x28xf16>) -> tensor<?x1x1x28xf16>
  %559 = "tf.Mul"(%557, %558) {device = ""} : (tensor<?x1x1x28xf16>, tensor<?x1x1x28xf16>) -> tensor<?x1x1x28xf16>
  %560 = "tf.Conv2D"(%559, %121) <{data_format = "NHWC", dilations = [1, 1, 1, 1], explicit_paddings = [], padding = "SAME", strides = [1, 1, 1, 1], use_cudnn_on_gpu = true}> {device = ""} : (tensor<?x1x1x28xf16>, tensor<1x1x28x672xf16>) -> tensor<?x1x1x672xf16>
  %561 = "tf.BiasAdd"(%560, %120) <{data_format = "NHWC"}> {device = ""} : (tensor<?x1x1x672xf16>, tensor<672xf16>) -> tensor<?x1x1x672xf16>
  %562 = "tf.Sigmoid"(%561) {device = ""} : (tensor<?x1x1x672xf16>) -> tensor<?x1x1x672xf16>
  %563 = "tf.Mul"(%548, %562) {device = ""} : (tensor<?x14x14x672xf16>, tensor<?x1x1x672xf16>) -> tensor<?x14x14x672xf16>
  %564 = "tf.Conv2D"(%563, %122) <{data_format = "NHWC", dilations = [1, 1, 1, 1], explicit_paddings = [], padding = "SAME", strides = [1, 1, 1, 1], use_cudnn_on_gpu = true}> {device = ""} : (tensor<?x14x14x672xf16>, tensor<1x1x672x112xf16>) -> tensor<?x14x14x112xf16>
  %565 = "tfl.cast"(%564) : (tensor<?x14x14x112xf16>) -> tensor<?x14x14x112xf32>
  %566 = "tfl.mul"(%565, %124) <{fused_activation_function = "NONE"}> : (tensor<?x14x14x112xf32>, tensor<1x1x1x112xf32>) -> tensor<?x14x14x112xf32>
  %567 = "tfl.add"(%566, %123) <{fused_activation_function = "NONE"}> : (tensor<?x14x14x112xf32>, tensor<1x1x1x112xf32>) -> tensor<?x14x14x112xf32>
  %568 = "tfl.cast"(%567) : (tensor<?x14x14x112xf32>) -> tensor<?x14x14x112xf16>
  %569 = "tf.AddV2"(%568, %534) {device = ""} : (tensor<?x14x14x112xf16>, tensor<?x14x14x112xf16>) -> tensor<?x14x14x112xf16>
  %570 = "tf.Conv2D"(%569, %112) <{data_format = "NHWC", dilations = [1, 1, 1, 1], explicit_paddings = [], padding = "SAME", strides = [1, 1, 1, 1], use_cudnn_on_gpu = true}> {device = ""} : (tensor<?x14x14x112xf16>, tensor<1x1x112x672xf16>) -> tensor<?x14x14x672xf16>
  %571 = "tfl.cast"(%570) : (tensor<?x14x14x672xf16>) -> tensor<?x14x14x672xf32>
  %572 = "tfl.mul"(%571, %114) <{fused_activation_function = "NONE"}> : (tensor<?x14x14x672xf32>, tensor<1x1x1x672xf32>) -> tensor<?x14x14x672xf32>
  %573 = "tfl.add"(%572, %113) <{fused_activation_function = "NONE"}> : (tensor<?x14x14x672xf32>, tensor<1x1x1x672xf32>) -> tensor<?x14x14x672xf32>
  %574 = "tfl.cast"(%573) : (tensor<?x14x14x672xf32>) -> tensor<?x14x14x672xf16>
  %575 = "tf.Sigmoid"(%574) {device = ""} : (tensor<?x14x14x672xf16>) -> tensor<?x14x14x672xf16>
  %576 = "tf.Mul"(%574, %575) {device = ""} : (tensor<?x14x14x672xf16>, tensor<?x14x14x672xf16>) -> tensor<?x14x14x672xf16>
  %577 = "tf.DepthwiseConv2dNative"(%576, %115) <{data_format = "NHWC", dilations = [1, 1, 1, 1], explicit_paddings = [], padding = "SAME", strides = [1, 1, 1, 1]}> {device = ""} : (tensor<?x14x14x672xf16>, tensor<3x3x672x1xf16>) -> tensor<?x14x14x672xf16>
  %578 = "tfl.cast"(%577) : (tensor<?x14x14x672xf16>) -> tensor<?x14x14x672xf32>
  %579 = "tfl.mul"(%578, %117) <{fused_activation_function = "NONE"}> : (tensor<?x14x14x672xf32>, tensor<1x1x1x672xf32>) -> tensor<?x14x14x672xf32>
  %580 = "tfl.add"(%579, %116) <{fused_activation_function = "NONE"}> : (tensor<?x14x14x672xf32>, tensor<1x1x1x672xf32>) -> tensor<?x14x14x672xf32>
  %581 = "tfl.cast"(%580) : (tensor<?x14x14x672xf32>) -> tensor<?x14x14x672xf16>
  %582 = "tf.Sigmoid"(%581) {device = ""} : (tensor<?x14x14x672xf16>) -> tensor<?x14x14x672xf16>
  %583 = "tf.Mul"(%581, %582) {device = ""} : (tensor<?x14x14x672xf16>, tensor<?x14x14x672xf16>) -> tensor<?x14x14x672xf16>
  %584 = "tfl.cast"(%583) : (tensor<?x14x14x672xf16>) -> tensor<?x14x14x672xf32>
  %585 = "tfl.mean"(%584, %244) <{keep_dims = false}> : (tensor<?x14x14x672xf32>, tensor<2xi32>) -> tensor<?x672xf32>
  %586 = "tfl.cast"(%585) : (tensor<?x672xf32>) -> tensor<?x672xf16>
  %587 = "tfl.shape"(%586) : (tensor<?x672xf16>) -> tensor<2xi32>
  %588 = "tfl.strided_slice"(%587, %242, %243, %243) <{begin_mask = 0 : i32, ellipsis_mask = 0 : i32, end_mask = 0 : i32, new_axis_mask = 0 : i32, offset = false, shrink_axis_mask = 1 : i32}> : (tensor<2xi32>, tensor<1xi32>, tensor<1xi32>, tensor<1xi32>) -> tensor<i32>
  %589 = "tfl.pack"(%588, %240, %240, %247) <{axis = 0 : i32, values_count = 4 : i32}> : (tensor<i32>, tensor<i32>, tensor<i32>, tensor<i32>) -> tensor<4xi32>
  %590 = "tfl.reshape"(%586, %589) : (tensor<?x672xf16>, tensor<4xi32>) -> tensor<?x1x1x672xf16>
  %591 = "tf.Conv2D"(%590, %106) <{data_format = "NHWC", dilations = [1, 1, 1, 1], explicit_paddings = [], padding = "SAME", strides = [1, 1, 1, 1], use_cudnn_on_gpu = true}> {device = ""} : (tensor<?x1x1x672xf16>, tensor<1x1x672x28xf16>) -> tensor<?x1x1x28xf16>
  %592 = "tf.BiasAdd"(%591, %105) <{data_format = "NHWC"}> {device = ""} : (tensor<?x1x1x28xf16>, tensor<28xf16>) -> tensor<?x1x1x28xf16>
  %593 = "tf.Sigmoid"(%592) {device = ""} : (tensor<?x1x1x28xf16>) -> tensor<?x1x1x28xf16>
  %594 = "tf.Mul"(%592, %593) {device = ""} : (tensor<?x1x1x28xf16>, tensor<?x1x1x28xf16>) -> tensor<?x1x1x28xf16>
  %595 = "tf.Conv2D"(%594, %108) <{data_format = "NHWC", dilations = [1, 1, 1, 1], explicit_paddings = [], padding = "SAME", strides = [1, 1, 1, 1], use_cudnn_on_gpu = true}> {device = ""} : (tensor<?x1x1x28xf16>, tensor<1x1x28x672xf16>) -> tensor<?x1x1x672xf16>
  %596 = "tf.BiasAdd"(%595, %107) <{data_format = "NHWC"}> {device = ""} : (tensor<?x1x1x672xf16>, tensor<672xf16>) -> tensor<?x1x1x672xf16>
  %597 = "tf.Sigmoid"(%596) {device = ""} : (tensor<?x1x1x672xf16>) -> tensor<?x1x1x672xf16>
  %598 = "tf.Mul"(%583, %597) {device = ""} : (tensor<?x14x14x672xf16>, tensor<?x1x1x672xf16>) -> tensor<?x14x14x672xf16>
  %599 = "tf.Conv2D"(%598, %109) <{data_format = "NHWC", dilations = [1, 1, 1, 1], explicit_paddings = [], padding = "SAME", strides = [1, 1, 1, 1], use_cudnn_on_gpu = true}> {device = ""} : (tensor<?x14x14x672xf16>, tensor<1x1x672x112xf16>) -> tensor<?x14x14x112xf16>
  %600 = "tfl.cast"(%599) : (tensor<?x14x14x112xf16>) -> tensor<?x14x14x112xf32>
  %601 = "tfl.mul"(%600, %111) <{fused_activation_function = "NONE"}> : (tensor<?x14x14x112xf32>, tensor<1x1x1x112xf32>) -> tensor<?x14x14x112xf32>
  %602 = "tfl.add"(%601, %110) <{fused_activation_function = "NONE"}> : (tensor<?x14x14x112xf32>, tensor<1x1x1x112xf32>) -> tensor<?x14x14x112xf32>
  %603 = "tfl.cast"(%602) : (tensor<?x14x14x112xf32>) -> tensor<?x14x14x112xf16>
  %604 = "tf.AddV2"(%603, %569) {device = ""} : (tensor<?x14x14x112xf16>, tensor<?x14x14x112xf16>) -> tensor<?x14x14x112xf16>
  %605 = "tf.Conv2D"(%604, %99) <{data_format = "NHWC", dilations = [1, 1, 1, 1], explicit_paddings = [], padding = "SAME", strides = [1, 1, 1, 1], use_cudnn_on_gpu =true}> {device = ""} : (tensor<?x14x14x112xf16>, tensor<1x1x112x672xf16>) -> tensor<?x14x14x672xf16>
  %606 = "tfl.cast"(%605) : (tensor<?x14x14x672xf16>) -> tensor<?x14x14x672xf32>
  %607 = "tfl.mul"(%606, %101) <{fused_activation_function = "NONE"}> : (tensor<?x14x14x672xf32>, tensor<1x1x1x672xf32>) -> tensor<?x14x14x672xf32>
  %608 = "tfl.add"(%607, %100) <{fused_activation_function = "NONE"}> : (tensor<?x14x14x672xf32>, tensor<1x1x1x672xf32>) -> tensor<?x14x14x672xf32>
  %609 = "tfl.cast"(%608) : (tensor<?x14x14x672xf32>) -> tensor<?x14x14x672xf16>
  %610 = "tf.Sigmoid"(%609) {device = ""} : (tensor<?x14x14x672xf16>) -> tensor<?x14x14x672xf16>
  %611 = "tf.Mul"(%609, %610) {device = ""} : (tensor<?x14x14x672xf16>, tensor<?x14x14x672xf16>) -> tensor<?x14x14x672xf16>
  %612 = "tf.DepthwiseConv2dNative"(%611, %102) <{data_format = "NHWC", dilations = [1, 1, 1, 1], explicit_paddings = [], padding = "SAME", strides = [1, 2, 2, 1]}> {device = ""} : (tensor<?x14x14x672xf16>, tensor<3x3x672x1xf16>) -> tensor<?x7x7x672xf16>
  %613 = "tfl.cast"(%612) : (tensor<?x7x7x672xf16>) -> tensor<?x7x7x672xf32>
  %614 = "tfl.mul"(%613, %104) <{fused_activation_function = "NONE"}> : (tensor<?x7x7x672xf32>, tensor<1x1x1x672xf32>) -> tensor<?x7x7x672xf32>
  %615 = "tfl.add"(%614, %103) <{fused_activation_function = "NONE"}> : (tensor<?x7x7x672xf32>, tensor<1x1x1x672xf32>) -> tensor<?x7x7x672xf32>
  %616 = "tfl.cast"(%615) : (tensor<?x7x7x672xf32>) -> tensor<?x7x7x672xf16>
  %617 = "tf.Sigmoid"(%616) {device = ""} : (tensor<?x7x7x672xf16>) -> tensor<?x7x7x672xf16>
  %618 = "tf.Mul"(%616, %617) {device = ""} : (tensor<?x7x7x672xf16>, tensor<?x7x7x672xf16>) -> tensor<?x7x7x672xf16>
  %619 = "tfl.cast"(%618) : (tensor<?x7x7x672xf16>) -> tensor<?x7x7x672xf32>
  %620 = "tfl.mean"(%619, %244) <{keep_dims = false}> : (tensor<?x7x7x672xf32>, tensor<2xi32>) -> tensor<?x672xf32>
  %621 = "tfl.cast"(%620) : (tensor<?x672xf32>) -> tensor<?x672xf16>
  %622 = "tfl.shape"(%621) : (tensor<?x672xf16>) -> tensor<2xi32>
  %623 = "tfl.strided_slice"(%622, %242, %243, %243) <{begin_mask = 0 : i32, ellipsis_mask = 0 : i32, end_mask = 0 : i32, new_axis_mask = 0 : i32, offset = false, shrink_axis_mask = 1 : i32}> : (tensor<2xi32>, tensor<1xi32>, tensor<1xi32>, tensor<1xi32>) -> tensor<i32>
  %624 = "tfl.pack"(%623, %240, %240, %247) <{axis = 0 : i32, values_count = 4 : i32}> : (tensor<i32>, tensor<i32>, tensor<i32>, tensor<i32>) -> tensor<4xi32>
  %625 = "tfl.reshape"(%621, %624) : (tensor<?x672xf16>, tensor<4xi32>) -> tensor<?x1x1x672xf16>
  %626 = "tf.Conv2D"(%625, %93) <{data_format = "NHWC", dilations = [1, 1, 1, 1], explicit_paddings = [], padding = "SAME", strides = [1, 1, 1, 1], use_cudnn_on_gpu =true}> {device = ""} : (tensor<?x1x1x672xf16>, tensor<1x1x672x28xf16>) -> tensor<?x1x1x28xf16>
  %627 = "tf.BiasAdd"(%626, %92) <{data_format = "NHWC"}> {device = ""} : (tensor<?x1x1x28xf16>, tensor<28xf16>) -> tensor<?x1x1x28xf16>
  %628 = "tf.Sigmoid"(%627) {device = ""} : (tensor<?x1x1x28xf16>) -> tensor<?x1x1x28xf16>
  %629 = "tf.Mul"(%627, %628) {device = ""} : (tensor<?x1x1x28xf16>, tensor<?x1x1x28xf16>) -> tensor<?x1x1x28xf16>
  %630 = "tf.Conv2D"(%629, %95) <{data_format = "NHWC", dilations = [1, 1, 1, 1], explicit_paddings = [], padding = "SAME", strides = [1, 1, 1, 1], use_cudnn_on_gpu =true}> {device = ""} : (tensor<?x1x1x28xf16>, tensor<1x1x28x672xf16>) -> tensor<?x1x1x672xf16>
  %631 = "tf.BiasAdd"(%630, %94) <{data_format = "NHWC"}> {device = ""} : (tensor<?x1x1x672xf16>, tensor<672xf16>) -> tensor<?x1x1x672xf16>
  %632 = "tf.Sigmoid"(%631) {device = ""} : (tensor<?x1x1x672xf16>) -> tensor<?x1x1x672xf16>
  %633 = "tf.Mul"(%618, %632) {device = ""} : (tensor<?x7x7x672xf16>, tensor<?x1x1x672xf16>) -> tensor<?x7x7x672xf16>
  %634 = "tf.Conv2D"(%633, %96) <{data_format = "NHWC", dilations = [1, 1, 1, 1], explicit_paddings = [], padding = "SAME", strides = [1, 1, 1, 1], use_cudnn_on_gpu =true}> {device = ""} : (tensor<?x7x7x672xf16>, tensor<1x1x672x192xf16>) -> tensor<?x7x7x192xf16>
  %635 = "tfl.cast"(%634) : (tensor<?x7x7x192xf16>) -> tensor<?x7x7x192xf32>
  %636 = "tfl.mul"(%635, %98) <{fused_activation_function = "NONE"}> : (tensor<?x7x7x192xf32>, tensor<1x1x1x192xf32>) -> tensor<?x7x7x192xf32>
  %637 = "tfl.add"(%636, %97) <{fused_activation_function = "NONE"}> : (tensor<?x7x7x192xf32>, tensor<1x1x1x192xf32>) -> tensor<?x7x7x192xf32>
  %638 = "tfl.cast"(%637) : (tensor<?x7x7x192xf32>) -> tensor<?x7x7x192xf16>
  %639 = "tf.Conv2D"(%638, %86) <{data_format = "NHWC", dilations = [1, 1, 1, 1], explicit_paddings = [], padding = "SAME", strides = [1, 1, 1, 1], use_cudnn_on_gpu =true}> {device = ""} : (tensor<?x7x7x192xf16>, tensor<1x1x192x1152xf16>) -> tensor<?x7x7x1152xf16>
  %640 = "tfl.cast"(%639) : (tensor<?x7x7x1152xf16>) -> tensor<?x7x7x1152xf32>
  %641 = "tfl.mul"(%640, %88) <{fused_activation_function = "NONE"}> : (tensor<?x7x7x1152xf32>, tensor<1x1x1x1152xf32>) -> tensor<?x7x7x1152xf32>
  %642 = "tfl.add"(%641, %87) <{fused_activation_function = "NONE"}> : (tensor<?x7x7x1152xf32>, tensor<1x1x1x1152xf32>) -> tensor<?x7x7x1152xf32>
  %643 = "tfl.cast"(%642) : (tensor<?x7x7x1152xf32>) -> tensor<?x7x7x1152xf16>
  %644 = "tf.Sigmoid"(%643) {device = ""} : (tensor<?x7x7x1152xf16>) -> tensor<?x7x7x1152xf16>
  %645 = "tf.Mul"(%643, %644) {device = ""} : (tensor<?x7x7x1152xf16>, tensor<?x7x7x1152xf16>) -> tensor<?x7x7x1152xf16>
  %646 = "tf.DepthwiseConv2dNative"(%645, %89) <{data_format = "NHWC", dilations = [1, 1, 1, 1], explicit_paddings = [], padding = "SAME", strides = [1, 1, 1, 1]}> {device = ""} : (tensor<?x7x7x1152xf16>, tensor<3x3x1152x1xf16>) -> tensor<?x7x7x1152xf16>
  %647 = "tfl.cast"(%646) : (tensor<?x7x7x1152xf16>) -> tensor<?x7x7x1152xf32>
  %648 = "tfl.mul"(%647, %91) <{fused_activation_function = "NONE"}> : (tensor<?x7x7x1152xf32>, tensor<1x1x1x1152xf32>) -> tensor<?x7x7x1152xf32>
  %649 = "tfl.add"(%648, %90) <{fused_activation_function = "NONE"}> : (tensor<?x7x7x1152xf32>, tensor<1x1x1x1152xf32>) -> tensor<?x7x7x1152xf32>
  %650 = "tfl.cast"(%649) : (tensor<?x7x7x1152xf32>) -> tensor<?x7x7x1152xf16>
  %651 = "tf.Sigmoid"(%650) {device = ""} : (tensor<?x7x7x1152xf16>) -> tensor<?x7x7x1152xf16>
  %652 = "tf.Mul"(%650, %651) {device = ""} : (tensor<?x7x7x1152xf16>, tensor<?x7x7x1152xf16>) -> tensor<?x7x7x1152xf16>
  %653 = "tfl.cast"(%652) : (tensor<?x7x7x1152xf16>) -> tensor<?x7x7x1152xf32>
  %654 = "tfl.mean"(%653, %244) <{keep_dims = false}> : (tensor<?x7x7x1152xf32>, tensor<2xi32>) -> tensor<?x1152xf32>
  %655 = "tfl.cast"(%654) : (tensor<?x1152xf32>) -> tensor<?x1152xf16>
  %656 = "tfl.shape"(%655) : (tensor<?x1152xf16>) -> tensor<2xi32>
  %657 = "tfl.strided_slice"(%656, %242, %243, %243) <{begin_mask = 0 : i32, ellipsis_mask = 0 : i32, end_mask = 0 : i32, new_axis_mask = 0 : i32, offset = false, shrink_axis_mask = 1 : i32}> : (tensor<2xi32>, tensor<1xi32>, tensor<1xi32>, tensor<1xi32>) -> tensor<i32>
  %658 = "tfl.pack"(%657, %240, %240, %248) <{axis = 0 : i32, values_count = 4 : i32}> : (tensor<i32>, tensor<i32>, tensor<i32>, tensor<i32>) -> tensor<4xi32>
  %659 = "tfl.reshape"(%655, %658) : (tensor<?x1152xf16>, tensor<4xi32>) -> tensor<?x1x1x1152xf16>
  %660 = "tf.Conv2D"(%659, %80) <{data_format = "NHWC", dilations = [1, 1, 1, 1], explicit_paddings = [], padding = "SAME", strides = [1, 1, 1, 1], use_cudnn_on_gpu =true}> {device = ""} : (tensor<?x1x1x1152xf16>, tensor<1x1x1152x48xf16>) -> tensor<?x1x1x48xf16>
  %661 = "tf.BiasAdd"(%660, %79) <{data_format = "NHWC"}> {device = ""} : (tensor<?x1x1x48xf16>, tensor<48xf16>) -> tensor<?x1x1x48xf16>
  %662 = "tf.Sigmoid"(%661) {device = ""} : (tensor<?x1x1x48xf16>) -> tensor<?x1x1x48xf16>
  %663 = "tf.Mul"(%661, %662) {device = ""} : (tensor<?x1x1x48xf16>, tensor<?x1x1x48xf16>) -> tensor<?x1x1x48xf16>
  %664 = "tf.Conv2D"(%663, %82) <{data_format = "NHWC", dilations = [1, 1, 1, 1], explicit_paddings = [], padding = "SAME", strides = [1, 1, 1, 1], use_cudnn_on_gpu =true}> {device = ""} : (tensor<?x1x1x48xf16>, tensor<1x1x48x1152xf16>) -> tensor<?x1x1x1152xf16>
  %665 = "tf.BiasAdd"(%664, %81) <{data_format = "NHWC"}> {device = ""} : (tensor<?x1x1x1152xf16>, tensor<1152xf16>) -> tensor<?x1x1x1152xf16>
  %666 = "tf.Sigmoid"(%665) {device = ""} : (tensor<?x1x1x1152xf16>) -> tensor<?x1x1x1152xf16>
  %667 = "tf.Mul"(%652, %666) {device = ""} : (tensor<?x7x7x1152xf16>, tensor<?x1x1x1152xf16>) -> tensor<?x7x7x1152xf16>
  %668 = "tf.Conv2D"(%667, %83) <{data_format = "NHWC", dilations = [1, 1, 1, 1], explicit_paddings = [], padding = "SAME", strides = [1, 1, 1, 1], use_cudnn_on_gpu =true}> {device = ""} : (tensor<?x7x7x1152xf16>, tensor<1x1x1152x192xf16>) -> tensor<?x7x7x192xf16>
  %669 = "tfl.cast"(%668) : (tensor<?x7x7x192xf16>) -> tensor<?x7x7x192xf32>
  %670 = "tfl.mul"(%669, %85) <{fused_activation_function = "NONE"}> : (tensor<?x7x7x192xf32>, tensor<1x1x1x192xf32>) -> tensor<?x7x7x192xf32>
  %671 = "tfl.add"(%670, %84) <{fused_activation_function = "NONE"}> : (tensor<?x7x7x192xf32>, tensor<1x1x1x192xf32>) -> tensor<?x7x7x192xf32>
  %672 = "tfl.cast"(%671) : (tensor<?x7x7x192xf32>) -> tensor<?x7x7x192xf16>
  %673 = "tf.AddV2"(%672, %638) {device = ""} : (tensor<?x7x7x192xf16>, tensor<?x7x7x192xf16>) -> tensor<?x7x7x192xf16>
  %674 = "tf.Conv2D"(%673, %73) <{data_format = "NHWC", dilations = [1, 1, 1, 1], explicit_paddings = [], padding = "SAME", strides = [1, 1, 1, 1], use_cudnn_on_gpu =true}> {device = ""} : (tensor<?x7x7x192xf16>, tensor<1x1x192x1152xf16>) -> tensor<?x7x7x1152xf16>
  %675 = "tfl.cast"(%674) : (tensor<?x7x7x1152xf16>) -> tensor<?x7x7x1152xf32>
  %676 = "tfl.mul"(%675, %75) <{fused_activation_function = "NONE"}> : (tensor<?x7x7x1152xf32>, tensor<1x1x1x1152xf32>) -> tensor<?x7x7x1152xf32>
  %677 = "tfl.add"(%676, %74) <{fused_activation_function = "NONE"}> : (tensor<?x7x7x1152xf32>, tensor<1x1x1x1152xf32>) -> tensor<?x7x7x1152xf32>
  %678 = "tfl.cast"(%677) : (tensor<?x7x7x1152xf32>) -> tensor<?x7x7x1152xf16>
  %679 = "tf.Sigmoid"(%678) {device = ""} : (tensor<?x7x7x1152xf16>) -> tensor<?x7x7x1152xf16>
  %680 = "tf.Mul"(%678, %679) {device = ""} : (tensor<?x7x7x1152xf16>, tensor<?x7x7x1152xf16>) -> tensor<?x7x7x1152xf16>
  %681 = "tf.DepthwiseConv2dNative"(%680, %76) <{data_format = "NHWC", dilations = [1, 1, 1, 1], explicit_paddings = [], padding = "SAME", strides = [1, 1, 1, 1]}> {device = ""} : (tensor<?x7x7x1152xf16>, tensor<3x3x1152x1xf16>) -> tensor<?x7x7x1152xf16>
  %682 = "tfl.cast"(%681) : (tensor<?x7x7x1152xf16>) -> tensor<?x7x7x1152xf32>
  %683 = "tfl.mul"(%682, %78) <{fused_activation_function = "NONE"}> : (tensor<?x7x7x1152xf32>, tensor<1x1x1x1152xf32>) -> tensor<?x7x7x1152xf32>
  %684 = "tfl.add"(%683, %77) <{fused_activation_function = "NONE"}> : (tensor<?x7x7x1152xf32>, tensor<1x1x1x1152xf32>) -> tensor<?x7x7x1152xf32>
  %685 = "tfl.cast"(%684) : (tensor<?x7x7x1152xf32>) -> tensor<?x7x7x1152xf16>
  %686 = "tf.Sigmoid"(%685) {device = ""} : (tensor<?x7x7x1152xf16>) -> tensor<?x7x7x1152xf16>
  %687 = "tf.Mul"(%685, %686) {device = ""} : (tensor<?x7x7x1152xf16>, tensor<?x7x7x1152xf16>) -> tensor<?x7x7x1152xf16>
  %688 = "tfl.cast"(%687) : (tensor<?x7x7x1152xf16>) -> tensor<?x7x7x1152xf32>
  %689 = "tfl.mean"(%688, %244) <{keep_dims = false}> : (tensor<?x7x7x1152xf32>, tensor<2xi32>) -> tensor<?x1152xf32>
  %690 = "tfl.cast"(%689) : (tensor<?x1152xf32>) -> tensor<?x1152xf16>
  %691 = "tfl.shape"(%690) : (tensor<?x1152xf16>) -> tensor<2xi32>
  %692 = "tfl.strided_slice"(%691, %242, %243, %243) <{begin_mask = 0 : i32, ellipsis_mask = 0 : i32, end_mask = 0 : i32, new_axis_mask = 0 : i32, offset = false, shrink_axis_mask = 1 : i32}> : (tensor<2xi32>, tensor<1xi32>, tensor<1xi32>, tensor<1xi32>) -> tensor<i32>
  %693 = "tfl.pack"(%692, %240, %240, %248) <{axis = 0 : i32, values_count = 4 : i32}> : (tensor<i32>, tensor<i32>, tensor<i32>, tensor<i32>) -> tensor<4xi32>
  %694 = "tfl.reshape"(%690, %693) : (tensor<?x1152xf16>, tensor<4xi32>) -> tensor<?x1x1x1152xf16>
  %695 = "tf.Conv2D"(%694, %67) <{data_format = "NHWC", dilations = [1, 1, 1, 1], explicit_paddings = [], padding = "SAME", strides = [1, 1, 1, 1], use_cudnn_on_gpu =true}> {device = ""} : (tensor<?x1x1x1152xf16>, tensor<1x1x1152x48xf16>) -> tensor<?x1x1x48xf16>
  %696 = "tf.BiasAdd"(%695, %66) <{data_format = "NHWC"}> {device = ""} : (tensor<?x1x1x48xf16>, tensor<48xf16>) -> tensor<?x1x1x48xf16>
  %697 = "tf.Sigmoid"(%696) {device = ""} : (tensor<?x1x1x48xf16>) -> tensor<?x1x1x48xf16>
  %698 = "tf.Mul"(%696, %697) {device = ""} : (tensor<?x1x1x48xf16>, tensor<?x1x1x48xf16>) -> tensor<?x1x1x48xf16>
  %699 = "tf.Conv2D"(%698, %69) <{data_format = "NHWC", dilations = [1, 1, 1, 1], explicit_paddings = [], padding = "SAME", strides = [1, 1, 1, 1], use_cudnn_on_gpu =true}> {device = ""} : (tensor<?x1x1x48xf16>, tensor<1x1x48x1152xf16>) -> tensor<?x1x1x1152xf16>
  %700 = "tf.BiasAdd"(%699, %68) <{data_format = "NHWC"}> {device = ""} : (tensor<?x1x1x1152xf16>, tensor<1152xf16>) -> tensor<?x1x1x1152xf16>
  %701 = "tf.Sigmoid"(%700) {device = ""} : (tensor<?x1x1x1152xf16>) -> tensor<?x1x1x1152xf16>
  %702 = "tf.Mul"(%687, %701) {device = ""} : (tensor<?x7x7x1152xf16>, tensor<?x1x1x1152xf16>) -> tensor<?x7x7x1152xf16>
  %703 = "tf.Conv2D"(%702, %70) <{data_format = "NHWC", dilations = [1, 1, 1, 1], explicit_paddings = [], padding = "SAME", strides = [1, 1, 1, 1], use_cudnn_on_gpu =true}> {device = ""} : (tensor<?x7x7x1152xf16>, tensor<1x1x1152x192xf16>) -> tensor<?x7x7x192xf16>
  %704 = "tfl.cast"(%703) : (tensor<?x7x7x192xf16>) -> tensor<?x7x7x192xf32>
  %705 = "tfl.mul"(%704, %72) <{fused_activation_function = "NONE"}> : (tensor<?x7x7x192xf32>, tensor<1x1x1x192xf32>) -> tensor<?x7x7x192xf32>
  %706 = "tfl.add"(%705, %71) <{fused_activation_function = "NONE"}> : (tensor<?x7x7x192xf32>, tensor<1x1x1x192xf32>) -> tensor<?x7x7x192xf32>
  %707 = "tfl.cast"(%706) : (tensor<?x7x7x192xf32>) -> tensor<?x7x7x192xf16>
  %708 = "tf.AddV2"(%707, %673) {device = ""} : (tensor<?x7x7x192xf16>, tensor<?x7x7x192xf16>) -> tensor<?x7x7x192xf16>
  %709 = "tf.Conv2D"(%708, %60) <{data_format = "NHWC", dilations = [1, 1, 1, 1], explicit_paddings = [], padding = "SAME", strides = [1, 1, 1, 1], use_cudnn_on_gpu =true}> {device = ""} : (tensor<?x7x7x192xf16>, tensor<1x1x192x1152xf16>) -> tensor<?x7x7x1152xf16>
  %710 = "tfl.cast"(%709) : (tensor<?x7x7x1152xf16>) -> tensor<?x7x7x1152xf32>
  %711 = "tfl.mul"(%710, %62) <{fused_activation_function = "NONE"}> : (tensor<?x7x7x1152xf32>, tensor<1x1x1x1152xf32>) -> tensor<?x7x7x1152xf32>
  %712 = "tfl.add"(%711, %61) <{fused_activation_function = "NONE"}> : (tensor<?x7x7x1152xf32>, tensor<1x1x1x1152xf32>) -> tensor<?x7x7x1152xf32>
  %713 = "tfl.cast"(%712) : (tensor<?x7x7x1152xf32>) -> tensor<?x7x7x1152xf16>
  %714 = "tf.Sigmoid"(%713) {device = ""} : (tensor<?x7x7x1152xf16>) -> tensor<?x7x7x1152xf16>
  %715 = "tf.Mul"(%713, %714) {device = ""} : (tensor<?x7x7x1152xf16>, tensor<?x7x7x1152xf16>) -> tensor<?x7x7x1152xf16>
  %716 = "tf.DepthwiseConv2dNative"(%715, %63) <{data_format = "NHWC", dilations = [1, 1, 1, 1], explicit_paddings = [], padding = "SAME", strides = [1, 1, 1, 1]}> {device = ""} : (tensor<?x7x7x1152xf16>, tensor<3x3x1152x1xf16>) -> tensor<?x7x7x1152xf16>
  %717 = "tfl.cast"(%716) : (tensor<?x7x7x1152xf16>) -> tensor<?x7x7x1152xf32>
  %718 = "tfl.mul"(%717, %65) <{fused_activation_function = "NONE"}> : (tensor<?x7x7x1152xf32>, tensor<1x1x1x1152xf32>) -> tensor<?x7x7x1152xf32>
  %719 = "tfl.add"(%718, %64) <{fused_activation_function = "NONE"}> : (tensor<?x7x7x1152xf32>, tensor<1x1x1x1152xf32>) -> tensor<?x7x7x1152xf32>
  %720 = "tfl.cast"(%719) : (tensor<?x7x7x1152xf32>) -> tensor<?x7x7x1152xf16>
  %721 = "tf.Sigmoid"(%720) {device = ""} : (tensor<?x7x7x1152xf16>) -> tensor<?x7x7x1152xf16>
  %722 = "tf.Mul"(%720, %721) {device = ""} : (tensor<?x7x7x1152xf16>, tensor<?x7x7x1152xf16>) -> tensor<?x7x7x1152xf16>
  %723 = "tfl.cast"(%722) : (tensor<?x7x7x1152xf16>) -> tensor<?x7x7x1152xf32>
  %724 = "tfl.mean"(%723, %244) <{keep_dims = false}> : (tensor<?x7x7x1152xf32>, tensor<2xi32>) -> tensor<?x1152xf32>
  %725 = "tfl.cast"(%724) : (tensor<?x1152xf32>) -> tensor<?x1152xf16>
  %726 = "tfl.shape"(%725) : (tensor<?x1152xf16>) -> tensor<2xi32>
  %727 = "tfl.strided_slice"(%726, %242, %243, %243) <{begin_mask = 0 : i32, ellipsis_mask = 0 : i32, end_mask = 0 : i32, new_axis_mask = 0 : i32, offset = false, shrink_axis_mask = 1 : i32}> : (tensor<2xi32>, tensor<1xi32>, tensor<1xi32>, tensor<1xi32>) -> tensor<i32>
  %728 = "tfl.pack"(%727, %240, %240, %248) <{axis = 0 : i32, values_count = 4 : i32}> : (tensor<i32>, tensor<i32>, tensor<i32>, tensor<i32>) -> tensor<4xi32>
  %729 = "tfl.reshape"(%725, %728) : (tensor<?x1152xf16>, tensor<4xi32>) -> tensor<?x1x1x1152xf16>
  %730 = "tf.Conv2D"(%729, %54) <{data_format = "NHWC", dilations = [1, 1, 1, 1], explicit_paddings = [], padding = "SAME", strides = [1, 1, 1, 1], use_cudnn_on_gpu =true}> {device = ""} : (tensor<?x1x1x1152xf16>, tensor<1x1x1152x48xf16>) -> tensor<?x1x1x48xf16>
  %731 = "tf.BiasAdd"(%730, %53) <{data_format = "NHWC"}> {device = ""} : (tensor<?x1x1x48xf16>, tensor<48xf16>) -> tensor<?x1x1x48xf16>
  %732 = "tf.Sigmoid"(%731) {device = ""} : (tensor<?x1x1x48xf16>) -> tensor<?x1x1x48xf16>
  %733 = "tf.Mul"(%731, %732) {device = ""} : (tensor<?x1x1x48xf16>, tensor<?x1x1x48xf16>) -> tensor<?x1x1x48xf16>
  %734 = "tf.Conv2D"(%733, %56) <{data_format = "NHWC", dilations = [1, 1, 1, 1], explicit_paddings = [], padding = "SAME", strides = [1, 1, 1, 1], use_cudnn_on_gpu =true}> {device = ""} : (tensor<?x1x1x48xf16>, tensor<1x1x48x1152xf16>) -> tensor<?x1x1x1152xf16>
  %735 = "tf.BiasAdd"(%734, %55) <{data_format = "NHWC"}> {device = ""} : (tensor<?x1x1x1152xf16>, tensor<1152xf16>) -> tensor<?x1x1x1152xf16>
  %736 = "tf.Sigmoid"(%735) {device = ""} : (tensor<?x1x1x1152xf16>) -> tensor<?x1x1x1152xf16>
  %737 = "tf.Mul"(%722, %736) {device = ""} : (tensor<?x7x7x1152xf16>, tensor<?x1x1x1152xf16>) -> tensor<?x7x7x1152xf16>
  %738 = "tf.Conv2D"(%737, %57) <{data_format = "NHWC", dilations = [1, 1, 1, 1], explicit_paddings = [], padding = "SAME", strides = [1, 1, 1, 1], use_cudnn_on_gpu =true}> {device = ""} : (tensor<?x7x7x1152xf16>, tensor<1x1x1152x192xf16>) -> tensor<?x7x7x192xf16>
  %739 = "tfl.cast"(%738) : (tensor<?x7x7x192xf16>) -> tensor<?x7x7x192xf32>
  %740 = "tfl.mul"(%739, %59) <{fused_activation_function = "NONE"}> : (tensor<?x7x7x192xf32>, tensor<1x1x1x192xf32>) -> tensor<?x7x7x192xf32>
  %741 = "tfl.add"(%740, %58) <{fused_activation_function = "NONE"}> : (tensor<?x7x7x192xf32>, tensor<1x1x1x192xf32>) -> tensor<?x7x7x192xf32>
  %742 = "tfl.cast"(%741) : (tensor<?x7x7x192xf32>) -> tensor<?x7x7x192xf16>
  %743 = "tf.AddV2"(%742, %708) {device = ""} : (tensor<?x7x7x192xf16>, tensor<?x7x7x192xf16>) -> tensor<?x7x7x192xf16>
  %744 = "tf.Conv2D"(%743, %47) <{data_format = "NHWC", dilations = [1, 1, 1, 1], explicit_paddings = [], padding = "SAME", strides = [1, 1, 1, 1], use_cudnn_on_gpu =true}> {device = ""} : (tensor<?x7x7x192xf16>, tensor<1x1x192x1152xf16>) -> tensor<?x7x7x1152xf16>
  %745 = "tfl.cast"(%744) : (tensor<?x7x7x1152xf16>) -> tensor<?x7x7x1152xf32>
  %746 = "tfl.mul"(%745, %49) <{fused_activation_function = "NONE"}> : (tensor<?x7x7x1152xf32>, tensor<1x1x1x1152xf32>) -> tensor<?x7x7x1152xf32>
  %747 = "tfl.add"(%746, %48) <{fused_activation_function = "NONE"}> : (tensor<?x7x7x1152xf32>, tensor<1x1x1x1152xf32>) -> tensor<?x7x7x1152xf32>
  %748 = "tfl.cast"(%747) : (tensor<?x7x7x1152xf32>) -> tensor<?x7x7x1152xf16>
  %749 = "tf.Sigmoid"(%748) {device = ""} : (tensor<?x7x7x1152xf16>) -> tensor<?x7x7x1152xf16>
  %750 = "tf.Mul"(%748, %749) {device = ""} : (tensor<?x7x7x1152xf16>, tensor<?x7x7x1152xf16>) -> tensor<?x7x7x1152xf16>
  %751 = "tf.DepthwiseConv2dNative"(%750, %50) <{data_format = "NHWC", dilations = [1, 1, 1, 1], explicit_paddings = [], padding = "SAME", strides = [1, 1, 1, 1]}> {device = ""} : (tensor<?x7x7x1152xf16>, tensor<3x3x1152x1xf16>) -> tensor<?x7x7x1152xf16>
  %752 = "tfl.cast"(%751) : (tensor<?x7x7x1152xf16>) -> tensor<?x7x7x1152xf32>
  %753 = "tfl.mul"(%752, %52) <{fused_activation_function = "NONE"}> : (tensor<?x7x7x1152xf32>, tensor<1x1x1x1152xf32>) -> tensor<?x7x7x1152xf32>
  %754 = "tfl.add"(%753, %51) <{fused_activation_function = "NONE"}> : (tensor<?x7x7x1152xf32>, tensor<1x1x1x1152xf32>) -> tensor<?x7x7x1152xf32>
  %755 = "tfl.cast"(%754) : (tensor<?x7x7x1152xf32>) -> tensor<?x7x7x1152xf16>
  %756 = "tf.Sigmoid"(%755) {device = ""} : (tensor<?x7x7x1152xf16>) -> tensor<?x7x7x1152xf16>
  %757 = "tf.Mul"(%755, %756) {device = ""} : (tensor<?x7x7x1152xf16>, tensor<?x7x7x1152xf16>) -> tensor<?x7x7x1152xf16>
  %758 = "tfl.cast"(%757) : (tensor<?x7x7x1152xf16>) -> tensor<?x7x7x1152xf32>
  %759 = "tfl.mean"(%758, %244) <{keep_dims = false}> : (tensor<?x7x7x1152xf32>, tensor<2xi32>) -> tensor<?x1152xf32>
  %760 = "tfl.cast"(%759) : (tensor<?x1152xf32>) -> tensor<?x1152xf16>
  %761 = "tfl.shape"(%760) : (tensor<?x1152xf16>) -> tensor<2xi32>
  %762 = "tfl.strided_slice"(%761, %242, %243, %243) <{begin_mask = 0 : i32, ellipsis_mask = 0 : i32, end_mask = 0 : i32, new_axis_mask = 0 : i32, offset = false, shrink_axis_mask = 1 : i32}> : (tensor<2xi32>, tensor<1xi32>, tensor<1xi32>, tensor<1xi32>) -> tensor<i32>
  %763 = "tfl.pack"(%762, %240, %240, %248) <{axis = 0 : i32, values_count = 4 : i32}> : (tensor<i32>, tensor<i32>, tensor<i32>, tensor<i32>) -> tensor<4xi32>
  %764 = "tfl.reshape"(%760, %763) : (tensor<?x1152xf16>, tensor<4xi32>) -> tensor<?x1x1x1152xf16>
  %765 = "tf.Conv2D"(%764, %41) <{data_format = "NHWC", dilations = [1, 1, 1, 1], explicit_paddings = [], padding = "SAME", strides = [1, 1, 1, 1], use_cudnn_on_gpu =true}> {device = ""} : (tensor<?x1x1x1152xf16>, tensor<1x1x1152x48xf16>) -> tensor<?x1x1x48xf16>
  %766 = "tf.BiasAdd"(%765, %40) <{data_format = "NHWC"}> {device = ""} : (tensor<?x1x1x48xf16>, tensor<48xf16>) -> tensor<?x1x1x48xf16>
  %767 = "tf.Sigmoid"(%766) {device = ""} : (tensor<?x1x1x48xf16>) -> tensor<?x1x1x48xf16>
  %768 = "tf.Mul"(%766, %767) {device = ""} : (tensor<?x1x1x48xf16>, tensor<?x1x1x48xf16>) -> tensor<?x1x1x48xf16>
  %769 = "tf.Conv2D"(%768, %43) <{data_format = "NHWC", dilations = [1, 1, 1, 1], explicit_paddings = [], padding = "SAME", strides = [1, 1, 1, 1], use_cudnn_on_gpu =true}> {device = ""} : (tensor<?x1x1x48xf16>, tensor<1x1x48x1152xf16>) -> tensor<?x1x1x1152xf16>
  %770 = "tf.BiasAdd"(%769, %42) <{data_format = "NHWC"}> {device = ""} : (tensor<?x1x1x1152xf16>, tensor<1152xf16>) -> tensor<?x1x1x1152xf16>
  %771 = "tf.Sigmoid"(%770) {device = ""} : (tensor<?x1x1x1152xf16>) -> tensor<?x1x1x1152xf16>
  %772 = "tf.Mul"(%757, %771) {device = ""} : (tensor<?x7x7x1152xf16>, tensor<?x1x1x1152xf16>) -> tensor<?x7x7x1152xf16>
  %773 = "tf.Conv2D"(%772, %44) <{data_format = "NHWC", dilations = [1, 1, 1, 1], explicit_paddings = [], padding = "SAME", strides = [1, 1, 1, 1], use_cudnn_on_gpu =true}> {device = ""} : (tensor<?x7x7x1152xf16>, tensor<1x1x1152x192xf16>) -> tensor<?x7x7x192xf16>
  %774 = "tfl.cast"(%773) : (tensor<?x7x7x192xf16>) -> tensor<?x7x7x192xf32>
  %775 = "tfl.mul"(%774, %46) <{fused_activation_function = "NONE"}> : (tensor<?x7x7x192xf32>, tensor<1x1x1x192xf32>) -> tensor<?x7x7x192xf32>
  %776 = "tfl.add"(%775, %45) <{fused_activation_function = "NONE"}> : (tensor<?x7x7x192xf32>, tensor<1x1x1x192xf32>) -> tensor<?x7x7x192xf32>
  %777 = "tfl.cast"(%776) : (tensor<?x7x7x192xf32>) -> tensor<?x7x7x192xf16>
  %778 = "tf.AddV2"(%777, %743) {device = ""} : (tensor<?x7x7x192xf16>, tensor<?x7x7x192xf16>) -> tensor<?x7x7x192xf16>
  %779 = "tf.Conv2D"(%778, %34) <{data_format = "NHWC", dilations = [1, 1, 1, 1], explicit_paddings = [], padding = "SAME", strides = [1, 1, 1, 1], use_cudnn_on_gpu =true}> {device = ""} : (tensor<?x7x7x192xf16>, tensor<1x1x192x1152xf16>) -> tensor<?x7x7x1152xf16>
  %780 = "tfl.cast"(%779) : (tensor<?x7x7x1152xf16>) -> tensor<?x7x7x1152xf32>
  %781 = "tfl.mul"(%780, %36) <{fused_activation_function = "NONE"}> : (tensor<?x7x7x1152xf32>, tensor<1x1x1x1152xf32>) -> tensor<?x7x7x1152xf32>
  %782 = "tfl.add"(%781, %35) <{fused_activation_function = "NONE"}> : (tensor<?x7x7x1152xf32>, tensor<1x1x1x1152xf32>) -> tensor<?x7x7x1152xf32>
  %783 = "tfl.cast"(%782) : (tensor<?x7x7x1152xf32>) -> tensor<?x7x7x1152xf16>
  %784 = "tf.Sigmoid"(%783) {device = ""} : (tensor<?x7x7x1152xf16>) -> tensor<?x7x7x1152xf16>
  %785 = "tf.Mul"(%783, %784) {device = ""} : (tensor<?x7x7x1152xf16>, tensor<?x7x7x1152xf16>) -> tensor<?x7x7x1152xf16>
  %786 = "tf.DepthwiseConv2dNative"(%785, %37) <{data_format = "NHWC", dilations = [1, 1, 1, 1], explicit_paddings = [], padding = "SAME", strides = [1, 1, 1, 1]}> {device = ""} : (tensor<?x7x7x1152xf16>, tensor<3x3x1152x1xf16>) -> tensor<?x7x7x1152xf16>
  %787 = "tfl.cast"(%786) : (tensor<?x7x7x1152xf16>) -> tensor<?x7x7x1152xf32>
  %788 = "tfl.mul"(%787, %39) <{fused_activation_function = "NONE"}> : (tensor<?x7x7x1152xf32>, tensor<1x1x1x1152xf32>) -> tensor<?x7x7x1152xf32>
  %789 = "tfl.add"(%788, %38) <{fused_activation_function = "NONE"}> : (tensor<?x7x7x1152xf32>, tensor<1x1x1x1152xf32>) -> tensor<?x7x7x1152xf32>
  %790 = "tfl.cast"(%789) : (tensor<?x7x7x1152xf32>) -> tensor<?x7x7x1152xf16>
  %791 = "tf.Sigmoid"(%790) {device = ""} : (tensor<?x7x7x1152xf16>) -> tensor<?x7x7x1152xf16>
  %792 = "tf.Mul"(%790, %791) {device = ""} : (tensor<?x7x7x1152xf16>, tensor<?x7x7x1152xf16>) -> tensor<?x7x7x1152xf16>
  %793 = "tfl.cast"(%792) : (tensor<?x7x7x1152xf16>) -> tensor<?x7x7x1152xf32>
  %794 = "tfl.mean"(%793, %244) <{keep_dims = false}> : (tensor<?x7x7x1152xf32>, tensor<2xi32>) -> tensor<?x1152xf32>
  %795 = "tfl.cast"(%794) : (tensor<?x1152xf32>) -> tensor<?x1152xf16>
  %796 = "tfl.shape"(%795) : (tensor<?x1152xf16>) -> tensor<2xi32>
  %797 = "tfl.strided_slice"(%796, %242, %243, %243) <{begin_mask = 0 : i32, ellipsis_mask = 0 : i32, end_mask = 0 : i32, new_axis_mask = 0 : i32, offset = false, shrink_axis_mask = 1 : i32}> : (tensor<2xi32>, tensor<1xi32>, tensor<1xi32>, tensor<1xi32>) -> tensor<i32>
  %798 = "tfl.pack"(%797, %240, %240, %248) <{axis = 0 : i32, values_count = 4 : i32}> : (tensor<i32>, tensor<i32>, tensor<i32>, tensor<i32>) -> tensor<4xi32>
  %799 = "tfl.reshape"(%795, %798) : (tensor<?x1152xf16>, tensor<4xi32>) -> tensor<?x1x1x1152xf16>
  %800 = "tf.Conv2D"(%799, %28) <{data_format = "NHWC", dilations = [1, 1, 1, 1], explicit_paddings = [], padding = "SAME", strides = [1, 1, 1, 1], use_cudnn_on_gpu =true}> {device = ""} : (tensor<?x1x1x1152xf16>, tensor<1x1x1152x48xf16>) -> tensor<?x1x1x48xf16>
  %801 = "tf.BiasAdd"(%800, %27) <{data_format = "NHWC"}> {device = ""} : (tensor<?x1x1x48xf16>, tensor<48xf16>) -> tensor<?x1x1x48xf16>
  %802 = "tf.Sigmoid"(%801) {device = ""} : (tensor<?x1x1x48xf16>) -> tensor<?x1x1x48xf16>
  %803 = "tf.Mul"(%801, %802) {device = ""} : (tensor<?x1x1x48xf16>, tensor<?x1x1x48xf16>) -> tensor<?x1x1x48xf16>
  %804 = "tf.Conv2D"(%803, %30) <{data_format = "NHWC", dilations = [1, 1, 1, 1], explicit_paddings = [], padding = "SAME", strides = [1, 1, 1, 1], use_cudnn_on_gpu =true}> {device = ""} : (tensor<?x1x1x48xf16>, tensor<1x1x48x1152xf16>) -> tensor<?x1x1x1152xf16>
  %805 = "tf.BiasAdd"(%804, %29) <{data_format = "NHWC"}> {device = ""} : (tensor<?x1x1x1152xf16>, tensor<1152xf16>) -> tensor<?x1x1x1152xf16>
  %806 = "tf.Sigmoid"(%805) {device = ""} : (tensor<?x1x1x1152xf16>) -> tensor<?x1x1x1152xf16>
  %807 = "tf.Mul"(%792, %806) {device = ""} : (tensor<?x7x7x1152xf16>, tensor<?x1x1x1152xf16>) -> tensor<?x7x7x1152xf16>
  %808 = "tf.Conv2D"(%807, %31) <{data_format = "NHWC", dilations = [1, 1, 1, 1], explicit_paddings = [], padding = "SAME", strides = [1, 1, 1, 1], use_cudnn_on_gpu =true}> {device = ""} : (tensor<?x7x7x1152xf16>, tensor<1x1x1152x192xf16>) -> tensor<?x7x7x192xf16>
  %809 = "tfl.cast"(%808) : (tensor<?x7x7x192xf16>) -> tensor<?x7x7x192xf32>
  %810 = "tfl.mul"(%809, %33) <{fused_activation_function = "NONE"}> : (tensor<?x7x7x192xf32>, tensor<1x1x1x192xf32>) -> tensor<?x7x7x192xf32>
  %811 = "tfl.add"(%810, %32) <{fused_activation_function = "NONE"}> : (tensor<?x7x7x192xf32>, tensor<1x1x1x192xf32>) -> tensor<?x7x7x192xf32>
  %812 = "tfl.cast"(%811) : (tensor<?x7x7x192xf32>) -> tensor<?x7x7x192xf16>
  %813 = "tf.AddV2"(%812, %778) {device = ""} : (tensor<?x7x7x192xf16>, tensor<?x7x7x192xf16>) -> tensor<?x7x7x192xf16>
  %814 = "tf.Conv2D"(%813, %21) <{data_format = "NHWC", dilations = [1, 1, 1, 1], explicit_paddings = [], padding = "SAME", strides = [1, 1, 1, 1], use_cudnn_on_gpu =true}> {device = ""} : (tensor<?x7x7x192xf16>, tensor<1x1x192x1152xf16>) -> tensor<?x7x7x1152xf16>
  %815 = "tfl.cast"(%814) : (tensor<?x7x7x1152xf16>) -> tensor<?x7x7x1152xf32>
  %816 = "tfl.mul"(%815, %23) <{fused_activation_function = "NONE"}> : (tensor<?x7x7x1152xf32>, tensor<1x1x1x1152xf32>) -> tensor<?x7x7x1152xf32>
  %817 = "tfl.add"(%816, %22) <{fused_activation_function = "NONE"}> : (tensor<?x7x7x1152xf32>, tensor<1x1x1x1152xf32>) -> tensor<?x7x7x1152xf32>
  %818 = "tfl.cast"(%817) : (tensor<?x7x7x1152xf32>) -> tensor<?x7x7x1152xf16>
  %819 = "tf.Sigmoid"(%818) {device = ""} : (tensor<?x7x7x1152xf16>) -> tensor<?x7x7x1152xf16>
  %820 = "tf.Mul"(%818, %819) {device = ""} : (tensor<?x7x7x1152xf16>, tensor<?x7x7x1152xf16>) -> tensor<?x7x7x1152xf16>
  %821 = "tf.DepthwiseConv2dNative"(%820, %24) <{data_format = "NHWC", dilations = [1, 1, 1, 1], explicit_paddings = [], padding = "SAME", strides = [1, 1, 1, 1]}> {device = ""} : (tensor<?x7x7x1152xf16>, tensor<3x3x1152x1xf16>) -> tensor<?x7x7x1152xf16>
  %822 = "tfl.cast"(%821) : (tensor<?x7x7x1152xf16>) -> tensor<?x7x7x1152xf32>
  %823 = "tfl.mul"(%822, %26) <{fused_activation_function = "NONE"}> : (tensor<?x7x7x1152xf32>, tensor<1x1x1x1152xf32>) -> tensor<?x7x7x1152xf32>
  %824 = "tfl.add"(%823, %25) <{fused_activation_function = "NONE"}> : (tensor<?x7x7x1152xf32>, tensor<1x1x1x1152xf32>) -> tensor<?x7x7x1152xf32>
  %825 = "tfl.cast"(%824) : (tensor<?x7x7x1152xf32>) -> tensor<?x7x7x1152xf16>
  %826 = "tf.Sigmoid"(%825) {device = ""} : (tensor<?x7x7x1152xf16>) -> tensor<?x7x7x1152xf16>
  %827 = "tf.Mul"(%825, %826) {device = ""} : (tensor<?x7x7x1152xf16>, tensor<?x7x7x1152xf16>) -> tensor<?x7x7x1152xf16>
  %828 = "tfl.cast"(%827) : (tensor<?x7x7x1152xf16>) -> tensor<?x7x7x1152xf32>
  %829 = "tfl.mean"(%828, %244) <{keep_dims = false}> : (tensor<?x7x7x1152xf32>, tensor<2xi32>) -> tensor<?x1152xf32>
  %830 = "tfl.cast"(%829) : (tensor<?x1152xf32>) -> tensor<?x1152xf16>
  %831 = "tfl.shape"(%830) : (tensor<?x1152xf16>) -> tensor<2xi32>
  %832 = "tfl.strided_slice"(%831, %242, %243, %243) <{begin_mask = 0 : i32, ellipsis_mask = 0 : i32, end_mask = 0 : i32, new_axis_mask = 0 : i32, offset = false, shrink_axis_mask = 1 : i32}> : (tensor<2xi32>, tensor<1xi32>, tensor<1xi32>, tensor<1xi32>) -> tensor<i32>
  %833 = "tfl.pack"(%832, %240, %240, %248) <{axis = 0 : i32, values_count = 4 : i32}> : (tensor<i32>, tensor<i32>, tensor<i32>, tensor<i32>) -> tensor<4xi32>
  %834 = "tfl.reshape"(%830, %833) : (tensor<?x1152xf16>, tensor<4xi32>) -> tensor<?x1x1x1152xf16>
  %835 = "tf.Conv2D"(%834, %15) <{data_format = "NHWC", dilations = [1, 1, 1, 1], explicit_paddings = [], padding = "SAME", strides = [1, 1, 1, 1], use_cudnn_on_gpu =true}> {device = ""} : (tensor<?x1x1x1152xf16>, tensor<1x1x1152x48xf16>) -> tensor<?x1x1x48xf16>
  %836 = "tf.BiasAdd"(%835, %14) <{data_format = "NHWC"}> {device = ""} : (tensor<?x1x1x48xf16>, tensor<48xf16>) -> tensor<?x1x1x48xf16>
  %837 = "tf.Sigmoid"(%836) {device = ""} : (tensor<?x1x1x48xf16>) -> tensor<?x1x1x48xf16>
  %838 = "tf.Mul"(%836, %837) {device = ""} : (tensor<?x1x1x48xf16>, tensor<?x1x1x48xf16>) -> tensor<?x1x1x48xf16>
  %839 = "tf.Conv2D"(%838, %17) <{data_format = "NHWC", dilations = [1, 1, 1, 1], explicit_paddings = [], padding = "SAME", strides = [1, 1, 1, 1], use_cudnn_on_gpu =true}> {device = ""} : (tensor<?x1x1x48xf16>, tensor<1x1x48x1152xf16>) -> tensor<?x1x1x1152xf16>
  %840 = "tf.BiasAdd"(%839, %16) <{data_format = "NHWC"}> {device = ""} : (tensor<?x1x1x1152xf16>, tensor<1152xf16>) -> tensor<?x1x1x1152xf16>
  %841 = "tf.Sigmoid"(%840) {device = ""} : (tensor<?x1x1x1152xf16>) -> tensor<?x1x1x1152xf16>
  %842 = "tf.Mul"(%827, %841) {device = ""} : (tensor<?x7x7x1152xf16>, tensor<?x1x1x1152xf16>) -> tensor<?x7x7x1152xf16>
  %843 = "tf.Conv2D"(%842, %18) <{data_format = "NHWC", dilations = [1, 1, 1, 1], explicit_paddings = [], padding = "SAME", strides = [1, 1, 1, 1], use_cudnn_on_gpu =true}> {device = ""} : (tensor<?x7x7x1152xf16>, tensor<1x1x1152x192xf16>) -> tensor<?x7x7x192xf16>
  %844 = "tfl.cast"(%843) : (tensor<?x7x7x192xf16>) -> tensor<?x7x7x192xf32>
  %845 = "tfl.mul"(%844, %20) <{fused_activation_function = "NONE"}> : (tensor<?x7x7x192xf32>, tensor<1x1x1x192xf32>) -> tensor<?x7x7x192xf32>
  %846 = "tfl.add"(%845, %19) <{fused_activation_function = "NONE"}> : (tensor<?x7x7x192xf32>, tensor<1x1x1x192xf32>) -> tensor<?x7x7x192xf32>
  %847 = "tfl.cast"(%846) : (tensor<?x7x7x192xf32>) -> tensor<?x7x7x192xf16>
  %848 = "tf.AddV2"(%847, %813) {device = ""} : (tensor<?x7x7x192xf16>, tensor<?x7x7x192xf16>) -> tensor<?x7x7x192xf16>
  %849 = "tf.Conv2D"(%848, %8) <{data_format = "NHWC", dilations = [1, 1, 1, 1], explicit_paddings = [], padding = "SAME", strides = [1, 1, 1, 1], use_cudnn_on_gpu = true}> {device = ""} : (tensor<?x7x7x192xf16>, tensor<1x1x192x1152xf16>) -> tensor<?x7x7x1152xf16>
  %850 = "tfl.cast"(%849) : (tensor<?x7x7x1152xf16>) -> tensor<?x7x7x1152xf32>
  %851 = "tfl.mul"(%850, %10) <{fused_activation_function = "NONE"}> : (tensor<?x7x7x1152xf32>, tensor<1x1x1x1152xf32>) -> tensor<?x7x7x1152xf32>
  %852 = "tfl.add"(%851, %9) <{fused_activation_function = "NONE"}> : (tensor<?x7x7x1152xf32>, tensor<1x1x1x1152xf32>) -> tensor<?x7x7x1152xf32>
  %853 = "tfl.cast"(%852) : (tensor<?x7x7x1152xf32>) -> tensor<?x7x7x1152xf16>
  %854 = "tf.Sigmoid"(%853) {device = ""} : (tensor<?x7x7x1152xf16>) -> tensor<?x7x7x1152xf16>
  %855 = "tf.Mul"(%853, %854) {device = ""} : (tensor<?x7x7x1152xf16>, tensor<?x7x7x1152xf16>) -> tensor<?x7x7x1152xf16>
  %856 = "tf.DepthwiseConv2dNative"(%855, %11) <{data_format = "NHWC", dilations = [1, 1, 1, 1], explicit_paddings = [], padding = "SAME", strides = [1, 1, 1, 1]}> {device = ""} : (tensor<?x7x7x1152xf16>, tensor<3x3x1152x1xf16>) -> tensor<?x7x7x1152xf16>
  %857 = "tfl.cast"(%856) : (tensor<?x7x7x1152xf16>) -> tensor<?x7x7x1152xf32>
  %858 = "tfl.mul"(%857, %13) <{fused_activation_function = "NONE"}> : (tensor<?x7x7x1152xf32>, tensor<1x1x1x1152xf32>) -> tensor<?x7x7x1152xf32>
  %859 = "tfl.add"(%858, %12) <{fused_activation_function = "NONE"}> : (tensor<?x7x7x1152xf32>, tensor<1x1x1x1152xf32>) -> tensor<?x7x7x1152xf32>
  %860 = "tfl.cast"(%859) : (tensor<?x7x7x1152xf32>) -> tensor<?x7x7x1152xf16>
  %861 = "tf.Sigmoid"(%860) {device = ""} : (tensor<?x7x7x1152xf16>) -> tensor<?x7x7x1152xf16>
  %862 = "tf.Mul"(%860, %861) {device = ""} : (tensor<?x7x7x1152xf16>, tensor<?x7x7x1152xf16>) -> tensor<?x7x7x1152xf16>
  %863 = "tfl.cast"(%862) : (tensor<?x7x7x1152xf16>) -> tensor<?x7x7x1152xf32>
  %864 = "tfl.mean"(%863, %244) <{keep_dims = false}> : (tensor<?x7x7x1152xf32>, tensor<2xi32>) -> tensor<?x1152xf32>
  %865 = "tfl.cast"(%864) : (tensor<?x1152xf32>) -> tensor<?x1152xf16>
  %866 = "tfl.shape"(%865) : (tensor<?x1152xf16>) -> tensor<2xi32>
  %867 = "tfl.strided_slice"(%866, %242, %243, %243) <{begin_mask = 0 : i32, ellipsis_mask = 0 : i32, end_mask = 0 : i32, new_axis_mask = 0 : i32, offset = false, shrink_axis_mask = 1 : i32}> : (tensor<2xi32>, tensor<1xi32>, tensor<1xi32>, tensor<1xi32>) -> tensor<i32>
  %868 = "tfl.pack"(%867, %240, %240, %248) <{axis = 0 : i32, values_count = 4 : i32}> : (tensor<i32>, tensor<i32>, tensor<i32>, tensor<i32>) -> tensor<4xi32>
  %869 = "tfl.reshape"(%865, %868) : (tensor<?x1152xf16>, tensor<4xi32>) -> tensor<?x1x1x1152xf16>
  %870 = "tf.Conv2D"(%869, %2) <{data_format = "NHWC", dilations = [1, 1, 1, 1], explicit_paddings = [], padding = "SAME", strides = [1, 1, 1, 1], use_cudnn_on_gpu = true}> {device = ""} : (tensor<?x1x1x1152xf16>, tensor<1x1x1152x48xf16>) -> tensor<?x1x1x48xf16>
  %871 = "tf.BiasAdd"(%870, %1) <{data_format = "NHWC"}> {device = ""} : (tensor<?x1x1x48xf16>, tensor<48xf16>) -> tensor<?x1x1x48xf16>
  %872 = "tf.Sigmoid"(%871) {device = ""} : (tensor<?x1x1x48xf16>) -> tensor<?x1x1x48xf16>
  %873 = "tf.Mul"(%871, %872) {device = ""} : (tensor<?x1x1x48xf16>, tensor<?x1x1x48xf16>) -> tensor<?x1x1x48xf16>
  %874 = "tf.Conv2D"(%873, %4) <{data_format = "NHWC", dilations = [1, 1, 1, 1], explicit_paddings = [], padding = "SAME", strides = [1, 1, 1, 1], use_cudnn_on_gpu = true}> {device = ""} : (tensor<?x1x1x48xf16>, tensor<1x1x48x1152xf16>) -> tensor<?x1x1x1152xf16>
  %875 = "tf.BiasAdd"(%874, %3) <{data_format = "NHWC"}> {device = ""} : (tensor<?x1x1x1152xf16>, tensor<1152xf16>) -> tensor<?x1x1x1152xf16>
  %876 = "tf.Sigmoid"(%875) {device = ""} : (tensor<?x1x1x1152xf16>) -> tensor<?x1x1x1152xf16>
  %877 = "tf.Mul"(%862, %876) {device = ""} : (tensor<?x7x7x1152xf16>, tensor<?x1x1x1152xf16>) -> tensor<?x7x7x1152xf16>
  %878 = "tf.Conv2D"(%877, %5) <{data_format = "NHWC", dilations = [1, 1, 1, 1], explicit_paddings = [], padding = "SAME", strides = [1, 1, 1, 1], use_cudnn_on_gpu = true}> {device = ""} : (tensor<?x7x7x1152xf16>, tensor<1x1x1152x192xf16>) -> tensor<?x7x7x192xf16>
  %879 = "tfl.cast"(%878) : (tensor<?x7x7x192xf16>) -> tensor<?x7x7x192xf32>
  %880 = "tfl.mul"(%879, %7) <{fused_activation_function = "NONE"}> : (tensor<?x7x7x192xf32>, tensor<1x1x1x192xf32>) -> tensor<?x7x7x192xf32>
  %881 = "tfl.add"(%880, %6) <{fused_activation_function = "NONE"}> : (tensor<?x7x7x192xf32>, tensor<1x1x1x192xf32>) -> tensor<?x7x7x192xf32>
  %882 = "tfl.cast"(%881) : (tensor<?x7x7x192xf32>) -> tensor<?x7x7x192xf16>
  %883 = "tf.AddV2"(%882, %848) {device = ""} : (tensor<?x7x7x192xf16>, tensor<?x7x7x192xf16>) -> tensor<?x7x7x192xf16>
  %884 = "tf.Conv2D"(%883, %254) <{data_format = "NHWC", dilations = [1, 1, 1, 1], explicit_paddings = [], padding = "SAME", strides = [1, 1, 1, 1], use_cudnn_on_gpu = true}> {device = ""} : (tensor<?x7x7x192xf16>, tensor<1x1x192x1280xf16>) -> tensor<?x7x7x1280xf16>
  %885 = "tfl.cast"(%884) : (tensor<?x7x7x1280xf16>) -> tensor<?x7x7x1280xf32>
  %886 = "tfl.mul"(%885, %252) <{fused_activation_function = "NONE"}> : (tensor<?x7x7x1280xf32>, tensor<1x1x1x1280xf32>) -> tensor<?x7x7x1280xf32>
  %887 = "tfl.add"(%886, %253) <{fused_activation_function = "NONE"}> : (tensor<?x7x7x1280xf32>, tensor<1x1x1x1280xf32>) -> tensor<?x7x7x1280xf32>
  %888 = "tfl.cast"(%887) : (tensor<?x7x7x1280xf32>) -> tensor<?x7x7x1280xf16>
  %889 = "tf.Sigmoid"(%888) {device = ""} : (tensor<?x7x7x1280xf16>) -> tensor<?x7x7x1280xf16>
  %890 = "tf.Mul"(%888, %889) {device = ""} : (tensor<?x7x7x1280xf16>, tensor<?x7x7x1280xf16>) -> tensor<?x7x7x1280xf16>
  %891 = "tfl.cast"(%890) : (tensor<?x7x7x1280xf16>) -> tensor<?x7x7x1280xf32>
  %892 = "tfl.mean"(%891, %244) <{keep_dims = false}> : (tensor<?x7x7x1280xf32>, tensor<2xi32>) -> tensor<?x1280xf32>
  %893 = "tfl.cast"(%892) : (tensor<?x1280xf32>) -> tensor<?x1280xf16>
  %894 = "tf.MatMul"(%893, %256) <{grad_a = false, grad_b = false, transpose_a = false, transpose_b = true}> : (tensor<?x1280xf16>, tensor<256x1280xf16>) -> tensor<?x256xf16>
  %895 = "tf.BiasAdd"(%894, %236) <{data_format = "NHWC"}> {device = ""} : (tensor<?x256xf16>, tensor<256xf16>) -> tensor<?x256xf16>
  %896 = "tf.Relu"(%895) {device = ""} : (tensor<?x256xf16>) -> tensor<?x256xf16>
  %897 = "tfl.cast"(%896) : (tensor<?x256xf16>) -> tensor<?x256xf32>
  %898 = "tfl.mul"(%897, %238) <{fused_activation_function = "NONE"}> : (tensor<?x256xf32>, tensor<256xf32>) -> tensor<?x256xf32>
  %899 = "tfl.add"(%898, %237) <{fused_activation_function = "NONE"}> : (tensor<?x256xf32>, tensor<256xf32>) -> tensor<?x256xf32>
  %900 = "tfl.cast"(%899) : (tensor<?x256xf32>) -> tensor<?x256xf16>
  %901 = "tfl.cast"(%900) : (tensor<?x256xf16>) -> tensor<?x256xf32>
  %902 = "tfl.fully_connected"(%901, %258, %257) <{asymmetric_quantize_inputs = true, fused_activation_function = "NONE", keep_num_dims = false, weights_format = "DEFAULT"}> : (tensor<?x256xf32>, tensor<10x256x!quant.uniform<i8<-127:127>:f32:0, {0.0010851665040639443,0.0011615705067717183,9.8761165235924909E-4,0.0011454975511145404,0.0011738218425765752,0.0011776162414100227,0.0010011556345646776,0.0010168776502759438,0.0010058998357592606,0.0011889715128996241}>>, tensor<10xf32>) -> tensor<?x10xf32>
  %903 = "tfl.softmax"(%902) <{beta = 1.000000e+00 : f32}> : (tensor<?x10xf32>) -> tensor<?x10xf32>
  "func.return"(%903) : (tensor<?x10xf32>) -> ()
}) {tf.entry_function = {control_outputs = "", inputs = "serving_default_keras_tensor_277:0", outputs = "StatefulPartitionedCall_1:0"}, tf_saved_model.exported_names = ["serving_default"]} : () -> ()

(scanom-ml-env) jim_dejito@LAPTOP-UOBBLVQP:~$
